model3.pth (torch, 671669 bytes, 13 tensors)

weight f4 [256, 580]
0	0xbeb96a7b	-0.3621405
1	0xbd5aaf87	-0.053390052
2	0x3de1612c	0.11004862
3	0x3df07d38	0.117426336
4	0xbd99ca13	-0.07509246
5	0xbde712b3	-0.112828635
6	0xbdc2b238	-0.09506649
7	0xbd9875be	-0.074443325
8	0xbda94ef9	-0.08267016
9	0xbe5b1b38	-0.21397102
10	0xbe472dc1	-0.19451047
11	0xbe81807a	-0.25293332
12	0xbe464ccf	-0.19365238
13	0xbe26280a	-0.16226211
14	0xbe4afe62	-0.19823602
15	0x3d4c4dd1	0.0498789
16	0x3dcabdd5	0.09899489
17	0x3cf8e65d	0.030383283
18	0x3c3035a8	0.01075498
19	0x3d6486e3	0.0557927
20	0x3d71d972	0.059045263
21	0x3e0252dc	0.12726921
22	0xbdc37dc1	-0.0954547
23	0xbee97625	-0.4559795
24	0xbf059952	-0.52187073
25	0xbec95823	-0.39325055
26	0xbeb4a84e	-0.35284656
27	0xbe721abc	-0.23643011
28	0xbe0d5302	-0.13801196
29	0xbe1c739f	-0.15278481
30	0xbe18448c	-0.14869899
31	0xbe1776af	-0.14791368
32	0xbe0291d5	-0.12750943
33	0xbe0074f8	-0.1254462
34	0xbe2d3c31	-0.16917492
35	0xbdd4d575	-0.10392276
36	0xbc1d3fa8	-0.009597696
37	0x3d1d4848	0.03839901
38	0x3bb990d0	0.005663015
39	0xbc86d995	-0.016461173
40	0x4086d628	4.213642
41	0x4041458c	3.0198698
42	0x3fbad180	1.4595184
43	0x3ff406b5	1.9064547
44	0x3fca8781	1.5822603
45	0x3fc0382e	1.5017145
46	0x3f93631f	1.1514624
47	0x3f9af1b0	1.2105007
48	0x3f8ee6f9	1.1164237
49	0x3f90b40f	1.130495
50	0x3f287430	0.6580229
51	0x3f22c2d0	0.6357851
52	0x3ef1fa3a	0.4726122
53	0x3ee09aa9	0.43867996
54	0x3ed3ac68	0.41342473
55	0x3f03f10b	0.5153968
56	0x3ea9cb64	0.33162987
57	0x3e94af6b	0.29040083
58	0x3e8901d3	0.26759204
59	0x3e9705e8	0.29496694
60	0x3e55ea79	0.20890225
61	0x3e029e51	0.12755705
62	0x3d7a9308	0.061175376
63	0x3dc9f4ed	0.09861169
64	0x3e22d41b	0.15901224
65	0x3d2afbde	0.041744106
66	0x3d96f463	0.07370832
67	0x3cec01d8	0.028809473
68	0x3e19294a	0.14957157
69	0x3def669c	0.11689493
70	0xbc98da18	-0.018658683
71	0xbceaef1c	-0.02867847
72	0x3d088ab0	0.033335388
73	0x3c4691c4	0.012119714
74	0xbd243bfc	-0.040096268
75	0x3d859f83	0.06524565
76	0x3ce089c4	0.027409442
77	0xbbd19718	-0.0063961856
78	0x3d125124	0.035721913
79	0x3cd9fe8c	0.026610635
80	0xbd1a80b1	-0.037720386
81	0x3b419c9c	0.002954281
82	0xbd8cad87	-0.06869035
83	0xbdf213e3	-0.11820199
84	0xbd57aa2a	-0.052652515
85	0xbd535c6d	-0.051601816
86	0xbbee11b3	-0.0072652935
87	0xbca69d57	-0.020338697
88	0x3d0fb7e1	0.03508747
89	0xbd10f46d	-0.035389353
90	0xbd3af714	-0.04564579
91	0x3b2ffc59	0.0026853292
92	0xbd02d490	-0.031940997
93	0x3d4a11f8	0.049333543
94	0x3cb58d5b	0.02216213
95	0x3cee0e61	0.02905959
96	0x3d2273d2	0.039661236
97	0x3d3bb3bc	0.045825705
98	0x3d1eb597	0.038747396
99	0x3c98c350	0.01864782
100	0xbb9260cd	-0.004467106
101	0x3d876340	0.06610727
102	0x3c79a4ff	0.015237092
103	0x3c70d02c	0.01469807
104	0xbc0b8e37	-0.008517793
105	0x3cfdf063	0.030998414
106	0x3c9853b3	0.018594598
107	0x3c616088	0.013755925
108	0xbcab3e0b	-0.020903608
109	0x3c09247f	0.008370518
110	0x3c5351ce	0.012897922
111	0x3cefae89	0.02925803
112	0xbd122f5c	-0.035689697
113	0x3c3c42f4	0.011490572
114	0x3d1a68e0	0.037697673
115	0xbbb4b286	-0.0055144457
116	0x3c0e1478	0.008671872
117	0x3c3e46dd	0.011613575
118	0x3b27b422	0.0025589545
119	0xbca9d557	-0.020731611
120	0xb8c40c35	-9.348282e-05
121	0x3c9bca7e	0.019017454
122	0x3ce6a85f	0.028156457
123	0xbc5d17d2	-0.013494449
124	0x3c6082c6	0.013703054
125	0x3d0b2d85	0.033978958
126	0xbc88ccc6	-0.016699206
127	0x3cd05f7a	0.025436152
128	0xbd020ab6	-0.031748496
129	0xbd123326	-0.03569331
130	0xbc9b704b	-0.018974444
131	0xbce8112e	-0.028328504
132	0xbc25954b	-0.010106395
133	0xbc62cdb3	-0.013842988
134	0x3c57e8fc	0.013178106
135	0xbcabc655	-0.020968596
136	0x3cd34441	0.025789382
137	0x3d0fb2ae	0.03508251
138	0xbd25283a	-0.040321566
139	0xbbec58e0	-0.007212743
140	0x3cc61e19	0.024184274
141	0xbd03c0d9	-0.032166336
142	0xbd11ff0b	-0.03564362
143	0xbd285079	-0.04109237
144	0x3cd03727	0.025416924
145	0x39aa8acc	0.00032528338
146	0x3caab0ee	0.02083632
147	0x3d285d40	0.041104555
148	0xbae25ae2	-0.0017269517
149	0x3d1c521f	0.038164254
150	0x3c83ac92	0.016073499
151	0xbcb858db	-0.022503307
152	0xbbde7711	-0.006789096
153	0xbcb53e0b	-0.022124311
154	0x3c91df0a	0.017806549
155	0x3d29e871	0.04148144
156	0x3b93dab0	0.0045121536
157	0x3d596da5	0.05308308
158	0xbd18b43d	-0.037281264
159	0x3cfcab04	0.030843265
160	0xbcdccf28	-0.026954249
161	0xbcd7192f	-0.026257126
162	0xbcea1dc6	-0.02857865
163	0x3c9628bb	0.018329969
164	0x3c0a29b9	0.008432799
165	0xbd05a357	-0.032626476
166	0x3c293498	0.010327481
167	0x3d2b838f	0.04187351
168	0xbd256119	-0.040375803
169	0xbc455d24	-0.012046132
170	0xbb2e2a2c	-0.002657543
171	0x3c9e1840	0.019298673
172	0x3a1f1f53	0.00060700363
173	0x3b5b27c1	0.0033440443
174	0x3d0c7e09	0.034299884
175	0x3c3415d6	0.010991534
176	0xbd0466ea	-0.03232471
177	0xbc6339fc	-0.013868805
178	0xbbbd3a40	-0.005774766
179	0xbd2241cd	-0.039613534
180	0x3c0831fd	0.008312699
181	0x3d295626	0.041341923
182	0x3ca0c7cb	0.019626519
183	0x3cb6a38d	0.022294784
184	0x3cae7a49	0.021298544
185	0xbbd5fbbb	-0.0065302528
186	0xbc6bbbc7	-0.014388031
187	0xbcb0129c	-0.021493249
188	0xbc1d636d	-0.0096062245
189	0xbba28298	-0.0049594156
190	0x3d294985	0.04132988
191	0x3a6e677a	0.00090943987
192	0xbd1366a2	-0.03598655
193	0xbb50f5aa	-0.0031884708
194	0x3b606fd5	0.0034246345
195	0x3c392b9e	0.011301903
196	0x3b808880	0.003922522
197	0xbbd161ce	-0.006389833
198	0xbc544f6a	-0.012958387
199	0xbd160fa4	-0.03663601
200	0x3caa7f46	0.020812642
201	0x3c96d8c9	0.018413918
202	0xbd25e38d	-0.040500212
203	0xbc9ce9bf	-0.019154428
204	0xbd254ed8	-0.040358394
205	0xbc4b5beb	-0.012412052
206	0xbcca5a19	-0.024701165
207	0x3ce472ff	0.027886866
208	0x3d0e382c	0.03472154
209	0xba86bab1	-0.0010279027
210	0xbc10bdcf	-0.008834316
211	0x3d33a080	0.043854237
212	0xbcec21bc	-0.02882468
213	0x3c66bee4	0.014083598
214	0xbcffa7e4	-0.031207986
215	0xbd19109e	-0.037369363
216	0xbb42a584	-0.0029700706
217	0x3d01bced	0.031674314
218	0xbd00b0ac	-0.031418487
219	0x3c11953e	0.00888568
220	0x3ced8ee0	0.028998792
221	0x3ce1f42c	0.02758225
222	0xbcb4414a	-0.022003789
223	0xbb5fba1e	-0.0034138034
224	0xbc91b015	-0.017784158
225	0x3bb8743d	0.005629091
226	0x3d01dbca	0.031703748
227	0x3c8027cf	0.015643982
228	0x3c93e111	0.018051656
229	0x3cc27dd1	0.023741635
230	0x3c334fa4	0.010944281
231	0xbcb0cb52	-0.021581326
232	0xbd4e09d7	-0.050302353
233	0xbb540abc	-0.003235503
234	0xbd11ef73	-0.035628747
235	0x3caf9882	0.021435026
236	0x3cbe59eb	0.023236236
237	0x3b90d009	0.004419331
238	0xbb045541	-0.0020192417
239	0x3b1cafbb	0.0023908454
240	0x3c2b85ab	0.010468881
241	0xbd5bd1ad	-0.05366676
242	0x3b216804	0.0024628649
243	0xbaf6e848	-0.0018837536
244	0xbd658a84	-0.056040302
245	0xbcbde8e8	-0.023182347
246	0xbd54425a	-0.05182109
247	0xbcbd9b1e	-0.023145255
248	0xbbe6a02e	-0.007038138
249	0xbb35c1a4	-0.0027733827
250	0x3a55b4fd	0.00081522745
251	0xbd545e57	-0.051847782
252	0x3c1b3c83	0.009474876
253	0xbd43b43c	-0.047779307
254	0x3b20889d	0.002449549
255	0xba96e7c6	-0.0011513166

bias f4 [256]
0	0xbc87e2d0	-0.016587645
1	0x39f3800c	0.00046443974
2	0x3c37df10	0.011222616
3	0x3d1ad1a7	0.037797596
4	0x3ca054cf	0.01957169
5	0x3d051f94	0.03250082
6	0xbb84e727	-0.004055876
7	0x3cf3b72a	0.029750425
8	0x3c1c54e1	0.009541721
9	0x3ce947e9	0.028476672
10	0x3d12f1c4	0.035875097
11	0x3bed81ed	0.0072481544
12	0xbd251edd	-0.040312637
13	0x3cd90bc9	0.026494877
14	0x3cf30acf	0.02966824
15	0xbd04b781	-0.032401565
16	0x3bee9fdc	0.0072822403
17	0xbc0e0651	-0.008668498
18	0xbd0c3bed	-0.034236837
19	0x3d09116f	0.03346389
20	0x3ccf41a2	0.02529985
21	0xbc7de4b4	-0.015496422
22	0x3cc4a557	0.024004621
23	0xbd291ac1	-0.04128528
24	0xbb641f07	-0.0034808533
25	0x3bb4e8f3	0.005520934
26	0x3b08fb20	0.0020901635
27	0xbc81f2e9	-0.015862899
28	0x3d24d302	0.040240295
29	0x3c8c4d43	0.017126685
30	0x3c72d4dc	0.014821257
31	0xbbb7bce3	-0.005607234
32	0x3cc3bbb3	0.023893213
33	0x3b75d945	0.0037513536
34	0xbd04e502	-0.03244496
35	0xbced5ed7	-0.028975887
36	0xb99b3d30	-0.00029609492
37	0xbc6a3841	-0.014295639
38	0x3b4b3a26	0.003101
39	0x3d0e73d6	0.03477844
40	0xbccc6aa2	-0.02495319
41	0xbc3b95af	-0.011449262
42	0x3d2368a2	0.039894708
43	0x3cee3808	0.029079452
44	0xbcf03c6c	-0.029325686
45	0x3c2d5529	0.010579386
46	0xbbff4858	-0.0077906065
47	0x3b47dec8	0.0030497778
48	0x3cb19a33	0.021679973
49	0x3cd78b64	0.026311584
50	0xbcd3d878	-0.025860056
51	0xbb8fbb41	-0.004386336
52	0xbc5f002b	-0.01361088
53	0xbcd9bd2f	-0.026579468
54	0xbcd57f8d	-0.026061798
55	0xbc4ab1d1	-0.012371496
56	0xbcc36e59	-0.023856329
57	0xbc94319e	-0.018090066
58	0xbd12da5a	-0.035852768
59	0xbcada92a	-0.021198828
60	0x3ca60ab2	0.020268772
61	0x3cac045b	0.02099817
62	0x3cc22e63	0.02370376
63	0x3cfa1bc7	0.030530823
64	0xbc85522b	-0.016274532
65	0x3c9d380b	0.019191762
66	0xbab4fbb2	-0.0013807921
67	0xbc40c13e	-0.0117648225
68	0x3ce86a86	0.028371107
69	0xbcbfbd68	-0.023405746
70	0xbc2bad0f	-0.010478272
71	0xbd062b8b	-0.03275637
72	0xbcdf4e00	-0.027258873
73	0xbd1502a9	-0.03637949
74	0xbcd4f419	-0.025995301
75	0xbd25e183	-0.040498268
76	0xbd0853b4	-0.03328295
77	0x3cbc95d2	0.023020659
78	0x3c0f9dc8	0.008765645
79	0xba0c3439	-0.0005348358
80	0xbd216895	-0.039406378
81	0xbd1c7559	-0.03819785
82	0xbca9d6ea	-0.020732362
83	0x3d1be235	0.038057525
84	0xbc11cc0e	-0.008898748
85	0x3ca66b82	0.020314936
86	0xbd0e7119	-0.034775827
87	0x3d14977f	0.03627729
88	0xbc5ac5f2	-0.013352858
89	0x3d1628f2	0.036660142
90	0xbca05482	-0.019571546
91	0x3cc13946	0.02358688
92	0x3c86c6f8	0.016452298
93	0xbc8b5044	-0.017006047
94	0xbd257d1f	-0.040402528
95	0x3ce94114	0.028473414
96	0xbc05ef5e	-0.008174745
97	0xbd02b6ae	-0.0319125
98	0xbcbb1a2a	-0.022839624
99	0x3c2e71aa	0.010647217
100	0x3c9c2a76	0.019063216
101	0x3c3432af	0.010998412
102	0xbc06e157	-0.008232436
103	0x3cf9a3da	0.030473638
104	0x3d133ee9	0.035948668
105	0x3cbceb66	0.023061465
106	0xbd04bf25	-0.032408852
107	0xbcedda61	-0.029034795
108	0xbcff6c3a	-0.031179536
109	0xbd00a8d1	-0.031410996
110	0x3cf3c554	0.02975718
111	0xbcc03544	-0.023462899
112	0x3d02edb2	0.031964965
113	0xbc3acd0d	-0.011401427
114	0xbc7eb236	-0.0155454185
115	0xbcea9e94	-0.028640069
116	0xbc788c92	-0.015170233
117	0xbc5bb513	-0.013409871
118	0x3ca5c6b7	0.020236356
119	0xbc0e8560	-0.008698791
120	0xbc4620d6	-0.01209279
121	0xbcc4479d	-0.02395993
122	0xbbec55a7	-0.007212359
123	0xbc66c487	-0.014084942
124	0xbcb4f621	-0.02209002
125	0x3b6fe562	0.0036605229
126	0x3d0de7aa	0.03464476
127	0x3d0ef449	0.034900937
128	0xbb9cd7cb	-0.0047864667
129	0x3bc2ec47	0.0059485766
130	0xbca6d26f	-0.020364014
131	0x3d29c1d6	0.041444622
132	0xbc25bf41	-0.010116399
133	0xbb50275e	-0.0031761746
134	0x3d2949aa	0.041330017
135	0xbcf91c78	-0.030409083
136	0xbcd6d13a	-0.026222814
137	0xbb97e995	-0.0046359994
138	0xbd0fa13f	-0.035065886
139	0x3cee594c	0.029095314
140	0x3c97f7e6	0.018550824
141	0x3cb40c9e	0.021978673
142	0xbab01432	-0.0013433753
143	0xbcef4606	-0.029208194
144	0xbccbcd9d	-0.024878317
145	0xbbe8bcd2	-0.0071025873
146	0xbc7bf952	-0.015379267
147	0xbcf1b88b	-0.029506942
148	0xbada66bd	-0.0016662698
149	0x3b9e6eb3	0.0048349737
150	0x3ae8c023	0.0017757457
151	0x3c3b03a4	0.011414442
152	0xbaf785e6	-0.0018884509
153	0x3d0fadf2	0.035077997
154	0xbbfc84c7	-0.007706258
155	0x3c853684	0.016261347
156	0xbcbb8eca	-0.022895236
157	0x3d0330c1	0.032028917
158	0x3a742eab	0.00093148154
159	0x3a302aa9	0.0006720224
160	0x3c222379	0.009896153
161	0x3c26c266	0.010178184
162	0x3b12dad6	0.0022408268
163	0xbc4ff02a	-0.012691537
164	0xbc320e42	-0.010867657
165	0xbc457869	-0.012052634
166	0xbc1c6bb9	-0.009547167
167	0xbbf52b28	-0.0074819513
168	0xbc0b525a	-0.008503521
169	0xbbfbf21f	-0.007688775
170	0x3d04a607	0.0323849
171	0x3c676625	0.014123474
172	0xbc41eb2f	-0.011835857
173	0xbc8c4002	-0.017120365
174	0xbd113047	-0.03544643
175	0xbc6941f7	-0.014236919
176	0xbbd9dbe3	-0.006648527
177	0x3d010ea5	0.031508107
178	0xbc846831	-0.016162964
179	0x3cd863d8	0.026414797
180	0x39b5c299	0.00034667997
181	0xbcc40508	-0.02392818
182	0xbc8afa3e	-0.016965028
183	0x3b52f84c	0.0032191454
184	0xbd0f872f	-0.03504103
185	0xbd0f7be3	-0.035030257
186	0xbc3b3a61	-0.011427493
187	0x3c084cef	0.008319124
188	0x3c5dc1ee	0.013535006
189	0xbca7b49d	-0.020471865
190	0x3b4e42a8	0.0031472836
191	0x3c95d146	0.018288266
192	0x39c219ba	0.0003702173
193	0x3d262d2f	0.040570434
194	0xbb63302e	-0.0034666169
195	0x3c53fca3	0.012938651
196	0x3c2120c0	0.009834468
197	0xbc06f1d7	-0.00823637
198	0xbd057844	-0.032585397
199	0x3c826ae2	0.015920106
200	0xbc119df3	-0.008887756
201	0xbb61aec2	-0.003443644
202	0x3b700934	0.003662658
203	0xbb4b626a	-0.0031034
204	0x3ca7321d	0.020409638
205	0x3c7bb60b	0.015363227
206	0xbcb84eaf	-0.022498457
207	0x3d220850	0.03955871
208	0xbc25eb24	-0.010126863
209	0xbc84e1d2	-0.01622096
210	0xbc0ec653	-0.008714276
211	0xbcb00e62	-0.021491233
212	0xbcb4f091	-0.022087367
213	0xbcef60cf	-0.029220967
214	0xbcf01ce3	-0.02931065
215	0xbc5f9b62	-0.013647886
216	0xbcfb3c82	-0.0306685
217	0x3d16f698	0.036856264
218	0xbc37f94b	-0.01122887
219	0xbd248aac	-0.04017131
220	0xbc76e4ca	-0.015069196
221	0x3d0276b8	0.0318515
222	0x3ca8f50b	0.020624658
223	0x3bb4a700	0.005513072
224	0xbcb9e98f	-0.022694377
225	0x3cda80f5	0.02667282
226	0xbca2169e	-0.019786175
227	0xbc0e6633	-0.008691358
228	0x3c8d179c	0.017223172
229	0xbb8acfed	-0.0042362125
230	0xbd1e8e12	-0.038709708
231	0x3d0aa8c5	0.033852357
232	0x3a90d847	0.0011050784
233	0xbcf5d12b	-0.030006966
234	0xbd0b85e9	-0.034063254
235	0x3d1046de	0.035223834
236	0xbcd32a03	-0.025776869
237	0xbcc3ca01	-0.023900034
238	0x3c1675ee	0.00918339
239	0x3d208463	0.039188754
240	0x3c18bd21	0.009322436
241	0x3c896585	0.016772041
242	0xbd068a15	-0.03284653
243	0x3cdfd56e	0.02732345
244	0x3ccca9cc	0.02498331
245	0xbd269ef7	-0.040678944
246	0x3af24236	0.0018482867
247	0x3cf53672	0.029933188
248	0xbd256c1a	-0.040386297
249	0xbd269a38	-0.04067442
250	0xbd269225	-0.040666718
251	0x3c96d10f	0.018410234
252	0x3ccdc144	0.02511657
253	0x3ca5e81c	0.02025228
254	0xbd0ddb62	-0.034633048
255	0xbcfd32e1	-0.03090805

weight f4 [256]
0	0x3f8051cc	1.0024962
1	0x3f7f54c0	0.99738693
2	0x3f84e47b	1.0382227
3	0x3f6e595f	0.9310512
4	0x3f7f1377	0.99639076
5	0x3f7b6dc7	0.9821438
6	0x3f8402a2	1.0313303
7	0x3f7ac63b	0.97958726
8	0x3f7ee3c1	0.99566275
9	0x3f7b138a	0.9807669
10	0x3f78f7bf	0.9725303
11	0x3f7bbfd7	0.983396
12	0x3f603e7a	0.8759533
13	0x3f744ac3	0.9542658
14	0x3f81144f	1.0084323
15	0x3f7df191	0.99196726
16	0x3f7a9d63	0.97896403
17	0x3f7d910d	0.99049455
18	0x3f7bff72	0.98436654
19	0x3f8108ad	1.0080773
20	0x3f821f7d	1.016586
21	0x3f81470f	1.009981
22	0x3f7ec181	0.99514014
23	0x3f77d30a	0.96806395
24	0x3f717232	0.94314873
25	0x3f782a28	0.96939325
26	0x3f6f3976	0.93447053
27	0x3f841ca2	1.0321238
28	0x3f6dc78c	0.9288261
29	0x3f706ee7	0.93919224
30	0x3f806774	1.0031571
31	0x3f801a6e	1.0008066
32	0x3f7e3709	0.99302727
33	0x3f81d744	1.0143819
34	0x3f6c5861	0.92322356
35	0x3f732c20	0.94989204
36	0x3f750729	0.9571405
37	0x3f80092d	1.00028
38	0x3f77ff05	0.96873504
39	0x3f8585e1	1.0431482
40	0x3f7619f6	0.96133363
41	0x3f7d1a26	0.98868024
42	0x3f7e3d40	0.9931221
43	0x3f7fc1ec	0.99905276
44	0x3f7f9479	0.99835926
45	0x3f804aac	1.0022788
46	0x3f81dd36	1.0145633
47	0x3f7b111a	0.9807297
48	0x3f6cfe12	0.9257518
49	0x3f7ed746	0.9954723
50	0x3f72a353	0.94780463
51	0x3f6dd8d9	0.9290901
52	0x3f80b4cc	1.0055175
53	0x3f742838	0.9537387
54	0x3f71ad6d	0.9440525
55	0x3f82c68e	1.0216844
56	0x3f88b29f	1.0679511
57	0x3f75f949	0.96083504
58	0x3f7786e7	0.9669022
59	0x3f6ec0ac	0.93262744
60	0x3f7a7cb9	0.9784656
61	0x3f7e3df5	0.9931329
62	0x3f7b8f94	0.9826596
63	0x3f8590aa	1.0434773
64	0x3f8524b0	1.0401821
65	0x3f6e3623	0.93051356
66	0x3f7b00ad	0.98047906
67	0x3f8264af	1.0186976
68	0x3f7b8662	0.98251927
69	0x3f870b3c	1.0550303
70	0x3f80507c	1.0024562
71	0x3f776bdf	0.96648973
72	0x3f7c7b4e	0.9862565
73	0x3f6ddd97	0.92916244
74	0x3f803292	1.0015433
75	0x3f85c767	1.0451478
76	0x3f76dd66	0.9643158
77	0x3f8029e3	1.0012783
78	0x3f80af66	1.0053527
79	0x3f7b63c3	0.981991
80	0x3f859dbf	1.0438765
81	0x3f7de5ce	0.9917878
82	0x3f74a046	0.9555706
83	0x3f7f45c3	0.9971582
84	0x3f7d15f5	0.9886163
85	0x3f804cd3	1.0023445
86	0x3f7e5f44	0.99364114
87	0x3f7f780c	0.9979255
88	0x3f82f981	1.0232393
89	0x3f85815e	1.0430105
90	0x3f793188	0.97341204
91	0x3f7d0b95	0.988458
92	0x3f746e8a	0.9548117
93	0x3f7494df	0.9553966
94	0x3f7e1cec	0.9926288
95	0x3f7268d5	0.9469121
96	0x3f805f3e	1.0029066
97	0x3f80d00b	1.006349
98	0x3f68364e	0.9070786
99	0x3f811945	1.0085837
100	0x3f7193e2	0.94366276
101	0x3f829119	1.020053
102	0x3f6db9a8	0.92861414
103	0x3f839118	1.0278654
104	0x3f7d5889	0.9896322
105	0x3f825a7b	1.0183862
106	0x3f7abcff	0.97944635
107	0x3f721928	0.94569635
108	0x3f7f8d2d	0.9982479
109	0x3f80a442	1.0050128
110	0x3f7526f7	0.9576258
111	0x3f7c2d03	0.9850618
112	0x3f81981c	1.0124545
113	0x3f7e6a90	0.9938135
114	0x3f81074d	1.0080353
115	0x3f81216a	1.0088322
116	0x3f7eda0b	0.9955146
117	0x3f800427	1.0001267
118	0x3f7e9496	0.99445474
119	0x3f878ffd	1.0590817
120	0x3f766ee7	0.96262974
121	0x3f827a15	1.0193506
122	0x3f828f1c	1.0199924
123	0x3f8225fc	1.0167842
124	0x3f6e8139	0.9316593
125	0x3f7b2c3f	0.9811439
126	0x3f6eadcf	0.9323396
127	0x3f83865d	1.027538
128	0x3f7e1ece	0.99265754
129	0x3f87c32a	1.0606434
130	0x3f716a00	0.9430237
131	0x3f825ccd	1.018457
132	0x3f8313b7	1.0240391
133	0x3f80cf8c	1.0063338
134	0x3f808156	1.003947
135	0x3f88a994	1.0676751
136	0x3f79ffee	0.9765614
137	0x3f814aed	1.010099
138	0x3f793687	0.9734883
139	0x3f6c127c	0.92215705
140	0x3f6d68db	0.9273812
141	0x3f75596f	0.9583959
142	0x3f70ba0d	0.9403389
143	0x3f817fbf	1.011711
144	0x3f7d2493	0.9888393
145	0x3f718592	0.9434444
146	0x3f70a3ad	0.9399975
147	0x3f831786	1.0241554
148	0x3f77a308	0.9673314
149	0x3f818e0c	1.0121474
150	0x3f7a2e50	0.9772692
151	0x3f849138	1.0356817
152	0x3f7c5388	0.9856496
153	0x3f8190e3	1.0122341
154	0x3f7a4f18	0.9777694
155	0x3f800886	1.0002601
156	0x3f7b9eff	0.98289484
157	0x3f843f33	1.0331787
158	0x3f69abdf	0.9127788
159	0x3f838b29	1.0276843
160	0x3f83f8a1	1.031025
161	0x3f7c0caf	0.98456854
162	0x3f823e88	1.0175333
163	0x3f6e6ca3	0.93134516
164	0x3f7eb248	0.99490786
165	0x3f773204	0.9656069
166	0x3f74cbeb	0.95623654
167	0x3f766a68	0.96256113
168	0x3f89a4e7	1.0753449
169	0x3f7d9bfc	0.9906614
170	0x3f800613	1.0001854
171	0x3f787684	0.9705584
172	0x3f7d942d	0.99054223
173	0x3f7d85ac	0.9903209
174	0x3f83eeb9	1.0307227
175	0x3f6fe370	0.9370642
176	0x3f7fc676	0.999122
177	0x3f64ba27	0.89346546
178	0x3f796bbd	0.9743002
179	0x3f80ae83	1.0053257
180	0x3f7b6658	0.9820304
181	0x3f6faf9e	0.93627346
182	0x3f79b660	0.9754391
183	0x3f835369	1.025983
184	0x3f793b15	0.9735578
185	0x3f846c83	1.0345615
186	0x3f80e427	1.0069627
187	0x3f821951	1.0163976
188	0x3f7b4fb0	0.9816847
189	0x3f8260bd	1.0185772
190	0x3f7aebbc	0.9801595
191	0x3f7287ee	0.9473866
192	0x3f801b60	1.0008354
193	0x3f7c3f4e	0.98534095
194	0x3f7802c7	0.9687924
195	0x3f7e2ffc	0.9929197
196	0x3f80a61f	1.0050696
197	0x3f80c047	1.0058678
198	0x3f71db11	0.94474894
199	0x3f7fc1c1	0.9990502
200	0x3f846894	1.0344415
201	0x3f6be6cd	0.9214905
202	0x3f82655c	1.0187182
203	0x3f7cd505	0.9876254
204	0x3f71a75a	0.94395983
205	0x3f803815	1.0017115
206	0x3f7c56bd	0.9856985
207	0x3f6e48e5	0.9307998
208	0x3f7b1ddd	0.9809244
209	0x3f7a51ff	0.97781366
210	0x3f6e5b64	0.931082
211	0x3f83539f	1.0259894
212	0x3f828783	1.0197605
213	0x3f6d862a	0.92782843
214	0x3f7ef9c3	0.99599856
215	0x3f7edfc7	0.9956021
216	0x3f6b4eb7	0.91916984
217	0x3f80376d	1.0016915
218	0x3f7b74ba	0.98224986
219	0x3f7835a7	0.96956867
220	0x3f833aa9	1.0252277
221	0x3f7b5079	0.98169667
222	0x3f727552	0.94710267
223	0x3f740314	0.95317197
224	0x3f81d50a	1.0143139
225	0x3f7c26f2	0.98496926
226	0x3f688463	0.90827006
227	0x3f7aea29	0.9801355
228	0x3f71fb89	0.9452444
229	0x3f7dd351	0.9915057
230	0x3f6820dd	0.90675145
231	0x3f80ce16	1.0062892
232	0x3f814d56	1.0101726
233	0x3f808098	1.0039244
234	0x3f84ffaf	1.0390528
235	0x3f78cebe	0.97190464
236	0x3f72a064	0.94775987
237	0x3f81a630	1.0128841
238	0x3f7ba137	0.9829287
239	0x3f722e3c	0.946018
240	0x3f8213fb	1.0162348
241	0x3f819d19	1.0126067
242	0x3f6bb6f5	0.92076045
243	0x3f7fc41a	0.999086
244	0x3f75be62	0.95993626
245	0x3f80a7ef	1.0051249
246	0x3f7be9dd	0.9840372
247	0x3f8472ec	1.0347571
248	0x3f80653e	1.0030897
249	0x3f7848b2	0.96985924
250	0x3f7abd1e	0.9794482
251	0x3f863226	1.0484054
252	0x3f77a17d	0.96730787
253	0x3f81ddb6	1.0145786
254	0x3f810014	1.0078149
255	0x3f731d2e	0.949664

bias f4 [256]
0	0xba14b577	-0.00056727923
1	0xbbe55a13	-0.006999263
2	0x3d183b11	0.037165705
3	0xbcb815ca	-0.022471327
4	0xbcef3b9a	-0.029203225
5	0xbd51d4be	-0.051228277
6	0x3d0a548e	0.033772044
7	0xbb99d1c0	-0.0046941936
8	0xbbdc6b2d	-0.0067266435
9	0xbbf56372	-0.0074886614
10	0xbd2551f8	-0.040361375
11	0x3c34f9a6	0.011045849
12	0xbde5b4da	-0.11216135
13	0xbd65c40c	-0.056095168
14	0xbbb3ed3b	-0.0054909266
15	0xbce6f253	-0.028191721
16	0xbcdb237a	-0.026750315
17	0x3c42513b	0.011860187
18	0xbd1e8cfb	-0.03870867
19	0xba5dc580	-0.0008459911
20	0xbc5aa587	-0.013345129
21	0x3cef98d9	0.029247688
22	0xbcfd92d7	-0.030953808
23	0xbd1dbf47	-0.038512494
24	0xbd74a97f	-0.059731957
25	0xbd5599b3	-0.052148532
26	0xbccaae1c	-0.024741225
27	0xbbd38668	-0.0064552315
28	0xbd8e0be4	-0.06935862
29	0xbd142fd0	-0.03617841
30	0x3b9502cb	0.004547452
31	0x3ce6fca2	0.028196637
32	0xbba4c455	-0.0050282874
33	0xbb6133ec	-0.0034363223
34	0xbd2fe0a6	-0.04293885
35	0xbd75ec87	-0.060040023
36	0xbd0ac6f9	-0.03388116
37	0x3c66b137	0.014080337
38	0xbc77743f	-0.015103399
39	0x3d05bdf9	0.032651875
40	0xbcd7c213	-0.026337659
41	0xbd1b43bc	-0.037906393
42	0xbcebbf3f	-0.028777717
43	0x3cc68331	0.024232479
44	0xbc92d437	-0.017923458
45	0x3dc4588c	0.095872015
46	0xbc3e1613	-0.011601943
47	0xbd1ed099	-0.038773153
48	0xbd6ef094	-0.058334902
49	0xbbe2dd98	-0.0069233887
50	0xbd3440b6	-0.044007026
51	0xbd1f7903	-0.038933765
52	0xbc7478b5	-0.014921357
53	0xbd27f3ca	-0.04100398
54	0xbd5c3aec	-0.05376713
55	0x3c29c0cf	0.010360911
56	0x3d9551b9	0.07290978
57	0xbd3004fc	-0.042973503
58	0xbd0dc0ba	-0.034607626
59	0xbd554b77	-0.052073922
60	0xbd1e2227	-0.03860679
61	0xbd06f4a2	-0.032948144
62	0xbd403284	-0.046923175
63	0x3d68eded	0.05686753
64	0x3d1e5bce	0.03866177
65	0xbd95de14	-0.07317749
66	0xbc2e9d2a	-0.010657588
67	0x3c2241de	0.009903399
68	0xbca02e06	-0.019553196
69	0x3d73e43a	0.059543826
70	0xbc918120	-0.017761767
71	0xbd294358	-0.04132399
72	0xbc013828	-0.007886924
73	0xbd94cd18	-0.07265681
74	0xbda7ed9e	-0.08199619
75	0x3d03054c	0.031987473
76	0xbd2d39fc	-0.042291626
77	0xbc36b89e	-0.011152415
78	0x3c82ce44	0.015967496
79	0xbd0f8740	-0.035041094
80	0x3d2dece0	0.04246223
81	0xbd152e08	-0.036420852
82	0xbd3c1eb0	-0.045927703
83	0xbb4a4c6a	-0.00308683
84	0x3cbbd130	0.022926897
85	0x3c819b4e	0.015821125
86	0x3b731e31	0.0037096853
87	0xbb3a082d	-0.002838622
88	0xbc154a6e	-0.009111984
89	0x3c4e4899	0.012590551
90	0xbd126938	-0.035744876
91	0xbb541bd8	-0.003236523
92	0xbd7455f3	-0.05965228
93	0xbcda36c5	-0.026637444
94	0x3d191516	0.037373625
95	0xbd7e6117	-0.06210431
96	0x3cce3297	0.025170607
97	0x3b3a3e02	0.0028418307
98	0xbd80df02	-0.06292535
99	0xbcbc703e	-0.02300274
100	0xbd11ab90	-0.035564005
101	0xbc139892	-0.009008544
102	0xbd531ced	-0.051541258
103	0x3d670ce2	0.05640877
104	0xbc9d51b4	-0.019203998
105	0x3a8bf200	0.001067698
106	0x3c961e71	0.018325062
107	0xbd223a82	-0.03960658
108	0xbbb7b4ac	-0.0056062546
109	0xbcde1dc8	-0.02711381
110	0xbcb59c6d	-0.022169316
111	0xbd4dc162	-0.050233252
112	0x3cc95a32	0.024579141
113	0xbb51ee55	-0.0032032926
114	0xbc1e7a38	-0.009672694
115	0x3d521ae8	0.05129519
116	0xbc838467	-0.016054345
117	0x3ce87719	0.028377103
118	0x3d9d6c81	0.07686711
119	0x3d40435b	0.046939235
120	0xbd726241	-0.059175733
121	0x3c39f614	0.0113501735
122	0x3cb8cf20	0.022559702
123	0x39cabd9d	0.00038669715
124	0xbdc0261e	-0.0938227
125	0xbcffdfdd	-0.031234676
126	0xbd1ea0fb	-0.03872774
127	0x3d2fa520	0.042882085
128	0x3ca53485	0.020166645
129	0x3cd13484	0.025537737
130	0xbd94b5cd	-0.07261238
131	0x3d190a29	0.037363205
132	0x3bf52dfa	0.0074822875
133	0xbd2b83ef	-0.04187387
134	0xbcd234a3	-0.025659865
135	0x3e00772c	0.1254546
136	0xbd0a482c	-0.033760235
137	0x3cd4c700	0.025973797
138	0xbd3efa94	-0.04662569
139	0xbd6b36c5	-0.05742528
140	0xbc5cc0b1	-0.013473676
141	0xbd6eac2d	-0.05826967
142	0xbd7f6e19	-0.062360857
143	0x3c4052ae	0.011738462
144	0xbc9b0e16	-0.018927615
145	0xbd95c275	-0.0731248
146	0xbd0c212e	-0.03421133
147	0xbbd500be	-0.0065003326
148	0xbbe0ad91	-0.006856628
149	0x3c8f917b	0.017525425
150	0xbc339d8f	-0.010962858
151	0x3c059f26	0.00815562
152	0xbd176529	-0.03696171
153	0xbc54a0da	-0.012977803
154	0xbd1707bc	-0.03687261
155	0xbc99fda3	-0.018797701
156	0x3c216d8d	0.009852779
157	0xbc7c4dc0	-0.015399396
158	0xbd8d4ecf	-0.06899797
159	0x3cded1ca	0.027199645
160	0x3c3c369c	0.011487629
161	0x3c431835	0.011907627
162	0x3d09a55a	0.033604957
163	0xbd8b9644	-0.0681577
164	0x3bbd7443	0.0057816817
165	0xbcceda12	-0.025250468
166	0xbd19acde	-0.037518375
167	0xbcd65409	-0.026163118
168	0x3cef10a9	0.029182749
169	0xbb74b8eb	-0.0037341665
170	0xbc019374	-0.007908691
171	0xbd5d605e	-0.05404698
172	0xbc93bb77	-0.018033726
173	0xbc4158f0	-0.0118009895
174	0x3d2317af	0.03981751
175	0xbd5c2ffb	-0.053756695
176	0x3cc5d6a9	0.02415021
177	0xbd8cab28	-0.06868583
178	0xbc1d4f33	-0.009601402
179	0xbb870944	-0.0041209776
180	0x3d24ed41	0.040265325
181	0xbda702c1	-0.08154822
182	0xbd50e521	-0.050999764
183	0x3ca186d7	0.019717617
184	0xbd88df14	-0.06683174
185	0x3cd323b1	0.025773855
186	0x3c94a722	0.018146101
187	0xbbc8226f	-0.0061076204
188	0xbbe18f24	-0.006883519
189	0x3cfb186c	0.030651294
190	0xbd4738f9	-0.048638318
191	0xbd1acd05	-0.037793178
192	0x3b56fe02	0.003280521
193	0x3c3f4abd	0.011675534
194	0xbcc8d5a0	-0.024515927
195	0xbce997c9	-0.02851476
196	0x3c5bd396	0.013417145
197	0xbd03ff50	-0.032225907
198	0xbd566fd0	-0.052352726
199	0x3ce4651d	0.027880246
200	0x3cd3244f	0.02577415
201	0xbd7262d9	-0.0591763
202	0x3c45ff08	0.01208473
203	0x3c80f904	0.01574374
204	0xbd0b413f	-0.03399777
205	0xbc01f141	-0.007931055
206	0xbc4f1f4f	-0.012641742
207	0xbdaf5b49	-0.08562333
208	0xbd316229	-0.043306503
209	0xbc85a50a	-0.016314048
210	0xbd4c4b1b	-0.049876314
211	0x3d18d13d	0.03730892
212	0x3c9a8811	0.01886371
213	0xbd10bb4c	-0.03533487
214	0x3cdce1d7	0.026963158
215	0xbcfa806a	-0.03057881
216	0xbda088bf	-0.07838582
217	0x3ba9439c	0.0051655304
218	0xbb80a8fd	-0.003926395
219	0xbd385aab	-0.045008343
220	0xbbf2f1ce	-0.0074140793
221	0xbd010148	-0.031495363
222	0xbd7e8b00	-0.06214428
223	0xbd285bf2	-0.04110331
224	0x3c48670d	0.0122316005
225	0xbb65f92f	-0.0035091152
226	0xbd916a55	-0.07100359
227	0xbc9e5bf9	-0.019330965
228	0xbd350da3	-0.044202458
229	0xbc99a922	-0.018757407
230	0xbd82180d	-0.063522436
231	0xbca9a5ac	-0.020708881
232	0xbcfe9835	-0.031078437
233	0xbcc2586b	-0.023723802
234	0x3d87a3aa	0.06623013
235	0xbda26448	-0.079292834
236	0xbcc6477e	-0.024204012
237	0x3c38e665	0.011285399
238	0xbcc35af9	-0.02384709
239	0xbd395805	-0.045249958
240	0x3ce2e5da	0.027697492
241	0xbb9c8919	-0.0047770855
242	0xbd7478df	-0.059685584
243	0xbc4479a3	-0.011991891
244	0xbd360f80	-0.044448376
245	0x3d9b76d0	0.07591021
246	0xbd02313c	-0.031785235
247	0x3d3dc726	0.0463325
248	0xbbd7c8df	-0.006585225
249	0x3ba2d9d3	0.0049698143
250	0xbd481767	-0.048850443
251	0x3cb20a75	0.021733502
252	0xba86792d	-0.0010259502
253	0x3d2bfe1d	0.04199039
254	0xbba8943c	-0.005144624
255	0xbd3c160b	-0.04591946

running_mean f4 [256]
0	0xc1a1baa9	-20.216143
1	0xc2309672	-44.14692
2	0xc299651b	-76.69747
3	0x44a19d8c	1292.9233
4	0xc2aae948	-85.45563
5	0x436784ab	231.51823
6	0xc31e3d99	-158.24062
7	0xc3e6b116	-461.38348
8	0xc3312476	-177.14243
9	0x42dc6224	110.19168
10	0x4334ab53	180.66924
11	0x44236cf2	653.7023
12	0xc487c3bf	-1086.1171
13	0xc4c20d65	-1552.4186
14	0xc388e32e	-273.77484
15	0x43a9d726	339.68085
16	0xc4498a38	-806.15967
17	0xc372a721	-242.65285
18	0xc356f4b3	-214.95586
19	0xc364dce5	-228.86287
20	0xc3b6959f	-365.1689
21	0xc393a25a	-295.26837
22	0xc38dd123	-283.63388
23	0x4418ae99	610.7281
24	0xc34ab73b	-202.71574
25	0xc4bd98df	-1516.7772
26	0x42a87d85	84.245155
27	0xc3b00c5c	-352.09656
28	0x4305051d	133.01997
29	0x441113ca	580.3092
30	0xc3ba6fb7	-372.87277
31	0x43c3f2d4	391.8971
32	0xc3a44183	-328.5118
33	0x42906d1b	72.2131
34	0xc482214c	-1041.0405
35	0xc467f58a	-927.83655
36	0xc411bc65	-582.94366
37	0x43b622ac	364.27087
38	0x43a96040	338.75195
39	0xc2eb8d93	-117.77651
40	0x4309fc45	137.98543
41	0x44839c1c	1052.8784
42	0xc3afad60	-351.3545
43	0xc3d94aad	-434.5834
44	0x43e88aa6	465.0832
45	0xc2e22a7a	-113.08296
46	0x43289839	168.59462
47	0x43d2e2d8	421.77222
48	0x44150c3a	596.19104
49	0x4295fe1d	74.996315
50	0xc39443a6	-296.5285
51	0x44191084	612.25806
52	0xc351cb9c	-209.79535
53	0xc41dcbcd	-631.1844
54	0xc334cd5e	-180.80222
55	0x42b3363c	89.60593
56	0xc2efd474	-119.91495
57	0x445c5a18	881.4077
58	0xc4e3f822	-1823.7542
59	0x445de939	887.6441
60	0xc3729c69	-242.61098
61	0xc2fde401	-126.94532
62	0xc33ee106	-190.879
63	0x42f32345	121.568886
64	0xc1d3dda8	-26.48323
65	0xc4c04961	-1538.2931
66	0xc2b68c31	-91.27381
67	0xc3cb7a84	-406.95715
68	0xc3e6bf2a	-461.49347
69	0xc27e7524	-63.614395
70	0xc275d62e	-61.45916
71	0xc3a6e301	-333.77347
72	0xc3fdb344	-507.4005
73	0x43e4d9af	457.70065
74	0xc45d61ae	-885.52625
75	0xc28193b1	-64.78846
76	0xc47757f8	-989.3745
77	0xc3c6a2c6	-397.27167
78	0x441e6af1	633.67096
79	0x43aba991	343.32474
80	0xc2f95633	-124.66836
81	0xc3e83c6b	-464.47202
82	0x4359fcc7	217.98741
83	0x42177fdb	37.87486
84	0xc326c9a5	-166.78767
85	0x442253cf	649.3095
86	0xc34a0e92	-202.05692
87	0xc3ef49f0	-478.57764
88	0xc421756c	-645.8347
89	0xc38c1786	-280.18378
90	0xc3a7ad3a	-335.35333
91	0xc2df4609	-111.63679
92	0x43e24a33	452.57968
93	0x432d58be	173.34665
94	0x42a8241b	84.07052
95	0x44122e3d	584.7225
96	0xc32e7593	-174.45927
97	0xc40bfc0e	-559.93835
98	0xc451387d	-836.8826
99	0xc3c79f6e	-399.24554
100	0xc40db145	-566.76984
101	0x425c49c0	55.07202
102	0x42f6c301	123.38087
103	0xc32bb2db	-171.69865
104	0xc000b3e9	-2.0109808
105	0xc42031a0	-640.7754
106	0x424b47f2	50.82026
107	0xc3fec65c	-509.54968
108	0xc3af34c6	-350.4123
109	0xc4108c91	-578.19635
110	0x44ec9d9b	1892.9252
111	0xc3db77b4	-438.93518
112	0xc3ddbcee	-443.476
113	0xc351e60a	-209.89859
114	0xc34cf136	-204.94223
115	0xc3f599b7	-491.2009
116	0xc404f469	-531.8189
117	0x42a4ebfc	82.46091
118	0xc406302a	-536.75256
119	0xc312091c	-146.03558
120	0xc396477f	-300.55856
121	0xc2cee174	-103.44034
122	0xc373e1d7	-243.88219
123	0x41ac6b6c	21.552452
124	0x42112016	36.281334
125	0x43bf7519	382.91483
126	0xc4a2e87e	-1303.2654
127	0xc3c8c7a2	-401.55963
128	0xc3815a6a	-258.70636
129	0xc2b1c976	-88.89348
130	0x43557229	213.44594
131	0xc1a24b4c	-20.286766
132	0xc314ad39	-148.67665
133	0x42f45ed0	122.18518
134	0x43cc6ca5	408.8488
135	0xc1e8eb11	-29.114779
136	0xc03ee83f	-2.9829252
137	0xc3c58016	-395.00067
138	0x44883e5c	1089.9487
139	0xc47c20fb	-1008.5153
140	0x4361fce5	225.98787
141	0x444f1e6a	828.4752
142	0x4306c17f	134.75584
143	0x43b21815	356.18814
144	0x4403bbda	526.9352
145	0xc39dbf55	-315.49478
146	0x40de5dc5	6.9489465
147	0xc308fe08	-136.99231
148	0xc2f6653a	-123.19771
149	0xc2ed2485	-118.57133
150	0xc28d394e	-70.61192
151	0xc2bfec9e	-95.96214
152	0x44256f71	661.7413
153	0x4356ab7f	214.6699
154	0xc38d6ec3	-282.86533
155	0xc1e5f8c7	-28.746473
156	0xc29273a2	-73.225845
157	0x42ccea8a	102.458084
158	0xc310b03e	-144.68845
159	0xc2d5fa33	-106.98867
160	0xc31fbeef	-159.74583
161	0xc30bdc00	-139.85938
162	0xc329b818	-169.71912
163	0x43b543d3	362.52988
164	0xc35a17a0	-218.09229
165	0x44ab9736	1372.7253
166	0xc249183f	-50.273678
167	0xc48b674e	-1115.2283
168	0xc2b313db	-89.53878
169	0xc359d151	-217.81764
170	0x43a3a8e7	327.31955
171	0x4326b44e	166.70432
172	0xc392a155	-293.2604
173	0x43bfe4df	383.78806
174	0xc326bfa3	-166.74858
175	0xc43c4c3a	-753.19104
176	0xc3db8f16	-439.11786
177	0xc1fc0f4e	-31.507473
178	0xc2d7e4f6	-107.94719
179	0xc3c3bde9	-391.48367
180	0x44367c33	729.9406
181	0x43716c43	241.4229
182	0x435947b6	217.28012
183	0x4327bbd0	167.73364
184	0xc451d0ad	-839.26056
185	0xc38c68e1	-280.81937
186	0x431345ef	147.27318
187	0xc3f06825	-480.81363
188	0xc4918591	-1164.174
189	0x41f0496d	30.035852
190	0xc3e3ac57	-455.3464
191	0x43f4fa8c	489.9574
192	0x42355a91	45.338444
193	0x430c57b7	140.34264
194	0xc3a4a2c1	-329.2715
195	0x43752372	245.13846
196	0xc3bc068c	-376.05115
197	0xc394b24a	-297.39288
198	0xc419835f	-614.0527
199	0x43fbcde3	503.6085
200	0x42e87cbb	116.243614
201	0xc4da89c4	-1748.3052
202	0xc389526d	-274.64395
203	0xc2fff30d	-127.97471
204	0xc2a02312	-80.0685
205	0xc38fa7ed	-287.31192
206	0xc389f4ce	-275.91254
207	0xc40d7d8e	-565.9618
208	0xc3a271c1	-324.8887
209	0xc40694ba	-538.32385
210	0xc4289b74	-674.42896
211	0xc2cd9023	-102.78152
212	0x437277ac	242.46747
213	0x434f57e6	207.34335
214	0xc3f8358c	-496.41833
215	0xc0df2356	-6.9730635
216	0x43cc8518	409.0398
217	0xc3373c0d	-183.23457
218	0xc4124494	-585.07153
219	0xc45a2da0	-872.7129
220	0xc4637701	-909.85944
221	0x43853a47	266.4553
222	0xc3847b9e	-264.96576
223	0xc3a4f68e	-329.9262
224	0xc3d9e549	-435.7913
225	0xc3addaa9	-347.70828
226	0x44e7898a	1852.2981
227	0xc449ae88	-806.72705
228	0x449fbc35	1277.8815
229	0xc3ddfd62	-443.97955
230	0x43b29135	357.13443
231	0xc39f76dd	-318.92862
232	0x4319e747	153.90343
233	0x431e8b15	158.54329
234	0xc29a2c28	-77.08624
235	0xc4e4cd7e	-1830.4216
236	0x44807ae3	1027.8402
237	0xc31c04cd	-156.01875
238	0xc44d54a8	-821.32275
239	0xc44417e8	-784.37354
240	0xc397927f	-303.1445
241	0xc35b8385	-219.51375
242	0xc3a2d172	-325.6363
243	0xc3208a77	-160.54088
244	0xc331efec	-177.9372
245	0xc2f9cc7e	-124.8994
246	0xc40af306	-555.79724
247	0xc33d2305	-189.1368
248	0xc34ba59f	-203.64696
249	0xc3a3db00	-327.71094
250	0xc3b62b5a	-364.33868
251	0xc2dbf3f7	-109.976494
252	0x440a3607	552.8442
253	0xc3851f4e	-266.24457
254	0xc383ad93	-263.35605
255	0x4363559f	227.33446

running_var f4 [256]
0	0x4735010b	46337.043
1	0x46a68b40	21317.625
2	0x46d3d19a	27112.8
3	0x489602a5	307221.16
4	0x46650ca7	14659.163
5	0x47bca8bf	96593.49
6	0x46efd0af	30696.342
7	0x47d8f361	111078.76
8	0x4751bd62	53693.383
9	0x477fb8ab	65464.668
10	0x47d40611	108556.13
11	0x47c303a9	99847.32
12	0x4912b8ac	600970.75
13	0x4927dd74	687575.25
14	0x46888d15	17478.541
15	0x4810d3bd	148302.95
16	0x47938916	75538.17
17	0x470e302b	36400.168
18	0x47539386	54163.523
19	0x4733b5d7	46005.84
20	0x46f42f5b	31255.678
21	0x46fee269	32625.205
22	0x4744b826	50360.15
23	0x48937ea5	302069.16
24	0x4896c51c	308776.88
25	0x48b946b4	379445.62
26	0x48aa14c7	348326.22
27	0x46bb9361	24009.69
28	0x48f7b31e	507288.94
29	0x487a2249	256137.14
30	0x473bb952	48057.32
31	0x46d67b8e	27453.777
32	0x46d81101	27656.502
33	0x46da25d1	27922.908
34	0x49ac14a5	1.4096846e+06
35	0x48d897a4	443581.12
36	0x47bcc59f	96651.24
37	0x4766cdb0	59085.688
38	0x48426213	199048.3
39	0x46662c02	14731.002
40	0x47aa00e7	87041.805
41	0x48bbfac1	384982.03
42	0x479a284f	78928.62
43	0x472a3b5e	43579.367
44	0x4830cbc4	181039.06
45	0x4678e4d2	15929.205
46	0x4671d0a7	15476.163
47	0x481051e2	147783.53
48	0x48e87b44	476122.12
49	0x4786603f	68800.49
50	0x48963f16	307704.7
51	0x493b6903	767632.2
52	0x46db0922	28036.566
53	0x48cbbb5e	417242.94
54	0x48a034fe	328103.94
55	0x4716fdc0	38653.75
56	0x4692e97a	18804.738
57	0x48427e66	199161.6
58	0x49e68f7e	1.8887518e+06
59	0x48a479b3	336845.6
60	0x47af5556	89770.67
61	0x4869f6ad	239578.7
62	0x47ca6105	103618.04
63	0x469c294e	19988.652
64	0x4695e1c0	19184.875
65	0x490414e4	541006.25
66	0x47308050	45184.312
67	0x472e403f	44608.246
68	0x48a81bc9	344286.28
69	0x46154baa	9554.916
70	0x47e9b7de	119663.734
71	0x481574db	153043.42
72	0x4841a5b8	198294.88
73	0x49b37c7c	1.4703515e+06
74	0x47b288b0	91409.375
75	0x4695282b	19092.084
76	0x47adadd8	88923.69
77	0x46f8e893	31860.287
78	0x471f3d0c	40765.047
79	0x476a27aa	59943.664
80	0x46dab4e9	27994.455
81	0x4738523b	47186.23
82	0x48271449	171089.14
83	0x46d92582	27794.754
84	0x46f19328	30921.578
85	0x46e561bc	29360.867
86	0x475c42fe	56386.992
87	0x478a4892	70801.14
88	0x47c63394	101479.16
89	0x46bc05a5	24066.822
90	0x4806e03a	138112.9
91	0x46ceb070	26456.219
92	0x48540113	217092.3
93	0x48a98baa	347229.3
94	0x46d57cb0	27326.344
95	0x483f6a77	196009.86
96	0x4719d45e	39380.367
97	0x476ed3b5	61139.707
98	0x4a0d8665	2.3187452e+06
99	0x46c18be5	24773.947
100	0x47af1154	89634.66
101	0x47021bd8	33307.844
102	0x485036d3	213211.3
103	0x465b91f1	14052.485
104	0x476be854	60392.33
105	0x4717e41b	38884.105
106	0x47a85346	86182.55
107	0x48687bd4	238063.31
108	0x47b2f854	91632.66
109	0x474c736a	52339.414
110	0x492986b8	694379.5
111	0x47be4c41	97432.51
112	0x46a1c302	20705.504
113	0x47b6f025	93664.29
114	0x468f7f51	18367.658
115	0x46fa456a	32034.707
116	0x488f6920	293705.0
117	0x47062d03	34349.01
118	0x47d7e800	110544.0
119	0x46918044	18624.133
120	0x482fd4b8	180050.88
121	0x46ec0e97	30215.295
122	0x4722451b	41541.105
123	0x464dae88	13163.633
124	0x48585c45	221553.08
125	0x48240087	167938.11
126	0x498d3b09	1.1569611e+06
127	0x468a33d4	17689.914
128	0x473f35b3	48949.7
129	0x4656ed0a	13755.26
130	0x47c3dfc9	100287.57
131	0x46a7323e	21401.121
132	0x46774c18	15827.023
133	0x479fa469	81736.82
134	0x4795fc09	76792.07
135	0x468e38e9	18204.455
136	0x476a1361	59923.38
137	0x46f111cc	30856.898
138	0x48cfbd67	425451.22
139	0x48e76ff8	473983.75
140	0x483a5d6b	190837.67
141	0x490d88d3	579725.2
142	0x4789b03b	70496.46
143	0x46e05852	28716.16
144	0x488c61a8	287501.25
145	0x48e68d97	472172.72
146	0x4831f6e5	182235.58
147	0x46d1acbb	26838.365
148	0x47d4a6be	108877.484
149	0x46ffeeca	32759.395
150	0x474dc69c	52678.61
151	0x4690c7b1	18531.846
152	0x47d9d685	111533.04
153	0x4709d5d2	35285.82
154	0x47a1631d	82630.23
155	0x47b91117	94754.18
156	0x47192d41	39213.254
157	0x4646458f	12689.39
158	0x48758de6	251447.6
159	0x46d2aa36	26965.105
160	0x46d81d1d	27662.557
161	0x4721beb4	41406.703
162	0x46d48106	27200.512
163	0x4955b356	875317.4
164	0x46e72177	29584.732
165	0x483b8371	192013.77
166	0x48b55e47	371442.22
167	0x47d5bd03	109434.02
168	0x4615267a	9545.619
169	0x48087756	139741.34
170	0x4744b8f4	50360.953
171	0x479e1676	80940.92
172	0x4755c98c	54729.547
173	0x4894d86e	304835.44
174	0x46d326c4	27027.383
175	0x49059705	547184.3
176	0x46c3a3d3	25041.912
177	0x49070ec1	553196.06
178	0x474431be	50225.742
179	0x47b0627e	90308.984
180	0x479da240	80708.5
181	0x4868dd5a	238453.4
182	0x480e36b3	145626.8
183	0x46de472b	28451.584
184	0x47a5d8d1	84913.63
185	0x46910196	18560.793
186	0x4659bbe0	13934.969
187	0x46d096fb	26699.49
188	0x480516dc	136283.44
189	0x46882513	17426.537
190	0x47622057	57888.34
191	0x4793e854	75728.66
192	0x46c05437	24618.107
193	0x46b9703c	23736.117
194	0x476de0cb	60896.793
195	0x47cc247f	104520.99
196	0x47f23a67	124020.805
197	0x479aa701	79182.01
198	0x48988a00	312400.0
199	0x4789d9d9	70579.695
200	0x4684fb66	17021.7
201	0x4a570cc7	3.5233778e+06
202	0x46a3ca89	20965.268
203	0x4741a882	49576.508
204	0x482f0e0b	179256.17
205	0x46cf7dd1	26558.908
206	0x482215fe	165975.97
207	0x48c3d06f	401027.47
208	0x47340f55	46095.332
209	0x48039dfc	134775.94
210	0x4981aab5	1.0622306e+06
211	0x465df0fb	14204.245
212	0x4706119a	34321.6
213	0x485d3210	226504.25
214	0x47843ea6	67709.3
215	0x474751a8	51025.656
216	0x4891ce43	298610.1
217	0x473effcc	48895.797
218	0x47adf3af	89063.37
219	0x48557e8b	218618.17
220	0x47705619	61526.098
221	0x46de1b66	28429.7
222	0x48a6843b	341025.84
223	0x491fae69	654054.56
224	0x470c1f51	35871.316
225	0x476844c3	59460.76
226	0x49640a28	934050.5
227	0x48287dae	172534.72
228	0x496e7f7f	976887.94
229	0x479bec35	79832.414
230	0x4932fe3f	733155.94
231	0x4791110c	74274.09
232	0x4746b056	50864.336
233	0x46dc9323	28233.568
234	0x4652db38	13494.805
235	0x48eae161	481035.03
236	0x48849118	271496.75
237	0x473bbd79	48061.473
238	0x47a0e1a7	82371.305
239	0x49d73e4f	1.7632739e+06
240	0x46c26929	24884.58
241	0x470693c6	34451.773
242	0x48f3d24f	499346.47
243	0x46c57e31	25279.096
244	0x486364d7	232851.36
245	0x463b7c7b	11999.12
246	0x475fdac0	57306.75
247	0x46d569ea	27316.957
248	0x46fa72f1	32057.47
249	0x4791a525	74570.29
250	0x47de74bc	113897.47
251	0x464a925b	12964.589
252	0x480ee721	146332.52
253	0x466ba376	15080.865
254	0x47167435	38516.207
255	0x489adbbd	317149.9

weight f4 [64, 256]
0	0xbc5bf616	-0.013425371
1	0xbc4516be	-0.012029348
2	0x3d948e96	0.072537586
3	0xbc4fd031	-0.012683914
4	0xbcaa6ba9	-0.02080329
5	0xbd1628f0	-0.036660135
6	0x3c7868ff	0.015161752
7	0xbcd81286	-0.02637602
8	0x3d8489d5	0.06471602
9	0xbd1f1b50	-0.038844407
10	0xbd3db09f	-0.046311017
11	0x3d2cc11f	0.042176362
12	0xbcf6cfda	-0.030128408
13	0xbd1d2c4d	-0.038372327
14	0x3d8fc01b	0.07019063
15	0xbccd696f	-0.025074689
16	0x3d230961	0.039803866
17	0x3b3b9e69	0.0028628355
18	0xbcb04001	-0.021514894
19	0x3d67365d	0.05644833
20	0xbd0e2f0d	-0.03471284
21	0x3c0f80fb	0.008758779
22	0xbd9139fa	-0.07091136
23	0xbd4b310d	-0.049607325
24	0xbd3b1d9d	-0.04568254
25	0x3da38c64	0.07985762
26	0x3bf3b68d	0.0074375332
27	0xbd1cd91c	-0.03829299
28	0x3ce4ed30	0.027945131
29	0xbc4ff8ee	-0.012693627
30	0xbc1a01c8	-0.009399839
31	0xbd294bf0	-0.041332185
32	0xbbd229ef	-0.0064136903
33	0x3c914b58	0.017736122
34	0x3d6b987b	0.057518464
35	0xbd52189e	-0.051293008
36	0x3bfe2476	0.0077558113
37	0xbc18eef6	-0.0093343165
38	0x3d6c7eb6	0.05773803
39	0x3ddc479b	0.10755845
40	0x3c887478	0.0166571
41	0x3a9da653	0.0012027718
42	0x3c919866	0.017772865
43	0x3d4594b1	0.048237506
44	0xbcf951c8	-0.030434504
45	0xbc3234fe	-0.010876892
46	0x3c593d2d	0.013259214
47	0xbd19bf4a	-0.037535943
48	0x3da6ea79	0.08150191
49	0xbd21a7a9	-0.039466534
50	0xbcb23b11	-0.02175668
51	0x3cf21b83	0.029554134
52	0x3ddbcb1f	0.10732102
53	0x3d0ce777	0.03440043
54	0x3ce6286d	0.028095448
55	0xb9a10514	-0.00030712096
56	0xbca5ac44	-0.020223744
57	0x3b4a4ce0	0.0030868575
58	0xbbe1b7f4	-0.006888384
59	0x3c46f521	0.012143404
60	0xba0458b0	-0.0005048616
61	0xbc574fa3	-0.0131415455
62	0x3cc5885a	0.024112869
63	0x3d1eb56a	0.03874723
64	0x3dc5e266	0.09662323
65	0x3d9cbe9c	0.07653543
66	0x3ced3062	0.028953735
67	0x3d10aac3	0.0353191
68	0xbd75010b	-0.059815448
69	0xbdd27f10	-0.102781415
70	0xbaddd59f	-0.0016924626
71	0x3d0b3ce3	0.033993613
72	0xbd6ebb66	-0.058284186
73	0x3ab82944	0.0014050384
74	0xbd36234a	-0.044467248
75	0x3d92b1db	0.071628295
76	0x3c9089f7	0.017643912
77	0xbd88a711	-0.066724904
78	0xbc1f37eb	-0.009717922
79	0x3d12eac7	0.035868432
80	0x3d7c89d7	0.06165489
81	0xbd59af93	-0.053145956
82	0xbcfc1528	-0.030771807
83	0x3d129cc7	0.035794046
84	0xbd7c36e1	-0.061575774
85	0xbc09c2e8	-0.008408286
86	0x3c58eeb1	0.013240502
87	0x3dc6b810	0.09703076
88	0xbc12c8ef	-0.008959039
89	0xbd8bbdfd	-0.06823347
90	0xbd4eb1b4	-0.05046244
91	0x3cb88d8c	0.022528432
92	0x3d07b88f	0.033134993
93	0xbbe57a6d	-0.0070031197
94	0xbbb262ff	-0.00544393
95	0xbbf8ce24	-0.0075929333
96	0x3d45c931	0.048287574
97	0xbd2a5c9d	-0.04159223
98	0xbc35655c	-0.011071529
99	0x3ccc2ac5	0.024922738
100	0x38d887fa	0.0001032501
101	0x3d57739e	0.052600496
102	0xbd5456e7	-0.05184069
103	0x3db53434	0.088478476
104	0x3c544bba	0.012957508
105	0x3d1606b6	0.036627494
106	0xbc82e5db	-0.015978744
107	0x3ca857e1	0.020549716
108	0x3db22235	0.08697931
109	0x3bab0b5d	0.0052198605
110	0xbc743a02	-0.014906408
111	0xbcb9b074	-0.022667147
112	0x3d8e7e5b	0.06957694
113	0xbb9a2524	-0.0047041345
114	0xbd04e179	-0.03244159
115	0xbd30c803	-0.043159496
116	0xbc46876c	-0.012117248
117	0xbd311718	-0.043234915
118	0xbc73a301	-0.014870406
119	0x3db0372a	0.08604272
120	0x3d2cf644	0.042227045
121	0x3c6955a3	0.014241609
122	0x3d877eae	0.06615959
123	0x3ce0d546	0.027445447
124	0x3c93409b	0.017975142
125	0x3d8b5277	0.06802838
126	0x3ce126d3	0.027484333
127	0xbc981c93	-0.018568313
128	0xbad6b153	-0.0016379751
129	0x3df3b32a	0.11899407
130	0xbd4f607f	-0.050629135
131	0xbc1120ec	-0.008857947
132	0xbd0a446c	-0.03375666
133	0x3d3c70b9	0.04600594
134	0x3d170583	0.03687049
135	0x3dc759ef	0.0973395
136	0xbcbdc4ff	-0.023165224
137	0x3bdf5fa2	0.0068168202
138	0xbc056229	-0.008141079
139	0x3c8c717a	0.017143954
140	0x3d660008	0.056152374
141	0xbc466849	-0.012109824
142	0x3d0cec0a	0.034404792
143	0xbd1d0513	-0.038334917
144	0xbd0e9972	-0.034814306
145	0xbc641015	-0.01391985
146	0x3d84696d	0.06465421
147	0xbbf55cf3	-0.007487887
148	0xbd07f664	-0.03319396
149	0x3d64921f	0.055803414
150	0xbc60cdf2	-0.013720976
151	0x3dc2a8d4	0.09504858
152	0x3d518b1c	0.051158056
153	0xbd870444	-0.065926105
154	0x3d0053af	0.031329807
155	0xbc9b83bf	-0.01898372
156	0x3c698980	0.014253974
157	0xbb375412	-0.0027973694
158	0xbc66cb40	-0.0140865445
159	0x3d3ce03f	0.046112295
160	0xbc2e0747	-0.010621852
161	0xbc77b5e8	-0.015119053
162	0x3cad1a96	0.021130841
163	0x3bc9bcbf	0.0061565335
164	0x3d9cfcf0	0.076654315
165	0xbd0beae1	-0.034159545
166	0x3d7c8653	0.06165154
167	0x3cf9024a	0.0303966
168	0xbdcf3202	-0.1011696
169	0xbd948d16	-0.072534725
170	0xbce9b6ed	-0.028529609
171	0xbd658514	-0.056035116
172	0xbd3989ab	-0.045297306
173	0x3a996d01	0.0011705459
174	0x3d4a8a6c	0.049448416
175	0xbd22f24d	-0.039781857
176	0x3d127ea5	0.03576531
177	0x3d303fc2	0.043029554
178	0x3cb0ff75	0.021606186
179	0xbd062c85	-0.0327573
180	0x3c97853b	0.018496146
181	0x3badd738	0.005305197
182	0xbd1cf404	-0.03831865
183	0x3d3d3209	0.046190295
184	0xbcb22e5d	-0.021750623
185	0x3b819cfa	0.0039554806
186	0xbd86de00	-0.06585312
187	0xbdb07d87	-0.086176924
188	0xbcf4dc13	-0.029890096
189	0xbd5db633	-0.054128837
190	0xbcbc5577	-0.022989972
191	0xbb8f79c4	-0.0043785293
192	0xbc3a5f9d	-0.011375335
193	0x3cba3f16	0.02273516
194	0x3d836e77	0.06417554
195	0x3c2b82a3	0.010468158
196	0x3d280885	0.04102375
197	0xbd668912	-0.056283064
198	0x3d37197d	0.044702042
199	0xbd827a7d	-0.06371019
200	0x3cc29fe2	0.023757879
201	0x3caf0c24	0.021368094
202	0x3bec22a7	0.0072062793
203	0xbcf47532	-0.02984104
204	0xbcf2d9e7	-0.02964492
205	0xbb4ba16b	-0.0031071554
206	0x3d051239	0.03248808
207	0x3d639e0c	0.055570647
208	0x3cefa825	0.029254982
209	0xbc2fe1d8	-0.010734998
210	0xbaabf419	-0.0013119011
211	0xbcd1c1c7	-0.025605096
212	0xbbcb6b00	-0.0062078238
213	0xbb0d99ef	-0.0021606644
214	0x3d3bc517	0.045842256
215	0x3c9bb507	0.019007219
216	0xbd0dbdf5	-0.034604985
217	0x3c9fb385	0.019494781
218	0x3d38b97f	0.045098778
219	0xbd24c5bf	-0.040227648
220	0xbce1007a	-0.027466048
221	0x3ce24be3	0.027624076
222	0x3c81c4a5	0.015840838
223	0x3c06ca44	0.008226935
224	0x3ce8c536	0.02841435
225	0xbd41dfdc	-0.04733263
226	0x3c3d911a	0.011570239
227	0xbd3d42ee	-0.046206407
228	0x3d0485fb	0.032354336
229	0x3cc365f5	0.023852328
230	0x3c68503f	0.014179288
231	0xbcc74271	-0.024323674
232	0x3cccb1b1	0.024987074
233	0x3d0c5293	0.034258436
234	0xbd9a8604	-0.07545093
235	0x3d5219a8	0.051294
236	0xbd0b7975	-0.034051377
237	0x3d3889e4	0.045053378
238	0xbd96b125	-0.073580064
239	0xbd6efcca	-0.058346547
240	0x3d9f4037	0.0777592
241	0x3c8d288d	0.01723125
242	0x3b95dac8	0.0045732
243	0xbd1feb5f	-0.039042827
244	0x3d89abbb	0.06722208
245	0x3d75f8eb	0.06005184
246	0xbd678a68	-0.05652848
247	0x3e01aac5	0.126628
248	0x3b2a2b53	0.0025965765
249	0xbd891b93	-0.066947125
250	0xbd57975c	-0.052634582
251	0xbd8fe6c5	-0.07026438
252	0xbd90aed5	-0.070645966
253	0xbc8d1206	-0.017220508
254	0x3c5f949a	0.013646269
255	0x3ca94101	0.02066088

bias f4 [64]
0	0xbd6852e0	-0.05671966
1	0x3d87d636	0.06632654
2	0x3d0f0323	0.0349151
3	0x3c85d9dd	0.016339237
4	0xbbf4ea92	-0.007474252
5	0x3d313754	0.043265656
6	0xbc658258	-0.014008127
7	0x3bca04b9	0.0061651138
8	0x3a6d6705	0.00090561836
9	0x3d4ca87f	0.049965378
10	0xbb9948a5	-0.0046778494
11	0xbd3b0e91	-0.04566819
12	0xbd27b79a	-0.04094658
13	0x3d6f7a5e	0.058466308
14	0xbcf027ab	-0.02931579
15	0xbd50219f	-0.050813314
16	0xbca4347e	-0.020044561
17	0xbd245094	-0.040115908
18	0x3c6937e1	0.014234514
19	0xbcedb3db	-0.029016426
20	0xbd358b5d	-0.04432236
21	0x3d8303d0	0.063972116
22	0x3d0347ce	0.0320509
23	0xbca16942	-0.019703511
24	0x3cbc65f5	0.022997836
25	0xbc37a1d4	-0.011208016
26	0xbce0aa12	-0.027424846
27	0x3d086df9	0.033308003
28	0xbd7a3119	-0.06108198
29	0xbd0c1384	-0.0341983
30	0xbd57b840	-0.05266595
31	0x3d684eac	0.056715652
32	0xbba07110	-0.0048962906
33	0x3bf33b55	0.0074228444
34	0xbcb99f86	-0.022659075
35	0xbc8ad49e	-0.016947087
36	0x3d61af1a	0.05509863
37	0x3d38d70d	0.045126963
38	0xbd1fd2ef	-0.03901952
39	0x3baaf0a9	0.005216677
40	0x3b9a35c8	0.0047061183
41	0xbc709be2	-0.014685603
42	0xbd3f8fcb	-0.04676799
43	0xbd1444c8	-0.036198407
44	0xbd532b31	-0.051554862
45	0x3c715a2c	0.014730971
46	0x3d64d63e	0.05586838
47	0x3ce5f4b8	0.028070793
48	0x3d0477e1	0.032340888
49	0x3cdc57ae	0.026897278
50	0xbcde89f6	-0.027165394
51	0x3cc2bbf1	0.023771258
52	0x3d5d54c8	0.05403593
53	0x3ca5c520	0.020235598
54	0x3bbae238	0.005703237
55	0x3cbaf114	0.022820033
56	0xbcc17380	-0.023614645
57	0xbca03e65	-0.019561002
58	0xbb6d14dd	-0.0036175766
59	0xbc3714f5	-0.01117443
60	0x3c8183e1	0.015809955
61	0xbd06844d	-0.032841016
62	0x3c3e28ed	0.011606437
63	0x3c0690cd	0.008213234

weight f4 [64]
0	0x3f7ee123	0.9956228
1	0x3f7bf474	0.9841988
2	0x3f83adab	1.0287374
3	0x3f8507e3	1.0393032
4	0x3f829447	1.0201501
5	0x3f8210a2	1.0161326
6	0x3f811a75	1.0086199
7	0x3f8291f1	1.0200788
8	0x3f78a1a8	0.9712167
9	0x3f83cefc	1.0297542
10	0x3f896cd1	1.0736333
11	0x3f852f2c	1.0405021
12	0x3f86228f	1.0479296
13	0x3f843481	1.0328523
14	0x3f7e1805	0.992554
15	0x3f809794	1.0046258
16	0x3f8238bf	1.0173568
17	0x3f8119c2	1.0085986
18	0x3f838e1e	1.0277746
19	0x3f8375e9	1.0270358
20	0x3f81b79c	1.0134158
21	0x3f814e39	1.0101997
22	0x3f8463a4	1.0342908
23	0x3f85579e	1.0417364
24	0x3f868d3a	1.0511849
25	0x3f7fda46	0.99942434
26	0x3f819823	1.0124553
27	0x3f84256c	1.032392
28	0x3f83f6de	1.0309713
29	0x3f808203	1.0039676
30	0x3f88bf16	1.0683315
31	0x3f8028ae	1.0012414
32	0x3f80d870	1.0066051
33	0x3f801fc9	1.00097
34	0x3f8b9720	1.0905495
35	0x3f873822	1.0564005
36	0x3f8175b6	1.0114048
37	0x3f84fa5e	1.0388906
38	0x3f81a96f	1.0129832
39	0x3f842cc6	1.0326164
40	0x3f816f83	1.0112156
41	0x3f84846f	1.0352916
42	0x3f812d3f	1.0091933
43	0x3f874516	1.0567958
44	0x3f8214a7	1.0162553
45	0x3f87ecd5	1.061915
46	0x3f8334e8	1.0250521
47	0x3f8008b2	1.0002654
48	0x3f826a4b	1.0188688
49	0x3f82d6d8	1.0221815
50	0x3f815053	1.0102638
51	0x3f842300	1.0323181
52	0x3f83536a	1.0259831
53	0x3f82aebd	1.0209576
54	0x3f859ae2	1.0437891
55	0x3f805f02	1.0028994
56	0x3f7d5d6f	0.98970693
57	0x3f83189c	1.0241885
58	0x3f81885a	1.0119736
59	0x3f84e4df	1.0382346
60	0x3f8616d4	1.0475717
61	0x3f80c5cf	1.0060366
62	0x3f8134ad	1.00942
63	0x3f8aa81a	1.083255
