model2.pth (torch, 671669 bytes, 13 tensors)

weight f4 [256, 580]
-0.9511729 -0.59070915 -1.0156634 0.050545257 0.011147555 0.20867617 -0.035242334 0.0833039
0.17397092 -0.058392793 0.19477284 -0.014242605 -0.16634786 -0.18802054 -0.10742533 -0.08376686
-0.26027015 -0.22890717 -0.37588373 -0.21253039 0.05178321 0.11678395 -0.010440108 -0.33271688
-0.47204557 -0.33964783 -0.3031726 -0.047528856 -0.057160325 -0.042312555 -0.03630861 -0.010148627
-0.053594008 -0.06269291 -0.0347136 -0.05298022 -0.03319457 -0.012392171 0.011994772 -0.016280413
3.4477673 1.6777427 0.10933551 1.8066779 1.1431006 1.3300489 0.72949207 1.3900551
1.3828733 1.4004462 0.6462648 0.465213 0.62722313 0.51587856 0.52451134 1.1571139
0.7920946 0.55680305 0.31316543 0.43193927 0.40487647 0.111944504 0.014339691 -0.022298768
0.04391497 0.02290502 -0.015072662 0.009645303 0.064665325 0.039790813 0.035886556 -0.011509119
-0.007467815 0.012406585 -0.004594588 -0.0050703785 0.023736231 0.0392187 0.034470476 -0.035469696
-0.025500638 0.037847772 0.12868355 0.05594116 -0.018697914 -0.057171386 -0.07453296 -0.031838965
0.051416103 -0.06311455 0.0008002025 -0.009436723 -0.021119308 -0.0512461 0.033430427 -0.019730164
-0.09937962 -0.027947443 -0.056816958 -0.09042824 -0.06343157 -0.024057828 -0.071739435 -0.06910805
-0.07977738 -0.07667587 -0.032121878 -0.095367715 -0.076388 -0.10295392 -0.071781576 -0.064637125
-0.13160186 -0.12179225 -0.09718126 -0.04990607 -0.017878324 -0.05121902 0.039711528 -0.03510427
-0.0089691 0.047747638 0.019988565 0.03236876 0.015242272 -0.06768659 0.0072581475 -0.017452441
-0.030854683 -0.04569057 -0.07920936 -0.07158145 -0.046213523 -0.035612877 -0.05347998 0.007368154
0.0018167481 -0.03748378 -0.025112826 -0.029034937 0.0035211002 -0.058090456 -0.039251983 -0.04915588
-0.0908618 -0.026730867 -0.039352924 -0.034766577 -0.059052736 -0.017632974 -0.03383206 0.017940499
0.012337934 0.041908655 -0.04423479 0.033089213 -0.040235385 0.0033299779 0.006353182 0.0336113
0.012628671 0.039989207 -0.026626484 0.023482576 -0.0075556827 -0.01461185 0.03437964 -0.032934472
-0.016436884 0.021732736 -0.017241126 -0.007854787 -0.0020064511 -0.009080534 -0.031219708 0.0116566075
0.0055838493 0.029653981 -0.041478176 -0.043642186 -0.06688191 0.0022014237 -0.005970085 0.000995988
-0.023804273 0.022607809 -0.004506173 -0.032700766 0.019132607 0.021078706 0.030546436 0.0009554424
0.038386036 0.012661762 0.021644369 0.046381276 -0.031251296 -0.008970624 -0.07324652 -0.059452333
-0.040946275 0.0029420126 -0.008162703 -0.006448927 0.0286325 0.047009416 0.022084361 -0.0020576923
-0.014796813 0.0032445497 -0.060676396 -0.06021892 -0.081295796 -0.033929493 -0.030509038 -0.028424645
-0.018218745 -0.05648871 -0.07385659 -0.075205676 -0.09045228 -0.1295323 -0.093381606 -0.106240906
-0.08470196 -0.048725672 -0.051406447 -0.04232897 -0.02924053 -0.09568869 -0.06112843 -0.073966704
-0.063817345 -0.041979454 -0.054852992 -0.06124811 -0.074228466 -0.036530197 -0.007509575 -0.07448229
-0.017027874 -0.028546136 -0.0009174313 -0.02016859 -0.047927916 0.018916922 -0.005214748 0.03904806
-0.0028619377 0.038038168 -0.030401368 0.026029179 0.01221758 0.037640546 0.06248705 0.06597638
00000000: 1180 73bf b738 17bf 4201 82bf 8b08 4f3d
00000010: 3ca4 363c 35af 553e 445a 10bd 3c9b aa3d
00000020: 6f25 323e 482d 6fbd 8872 473e d159 69bc
00000030: 1857 2abe 7588 40be d001 dcbd f68d abbd
00000040: 2142 85be a466 6abe d573 c0be 91a1 59be
00000050: a21a 543d 6c2c ef3d fd0c 2bbc de59 aabe
00000060: f5af f1be 52e6 adbe 7039 9bbe 9ead 42bd
00000070: f220 6abd ee4f 2dbd 56b8 14bd 6d46 26bc
00000080: 6485 5bbd 2465 80bd d92f 0ebd ca01 59bd
00000090: 08f7 07bd 8808 4bbc b885 443c 805e 85bc
000000a0: 38a8 5c40 46c0 d63f 4ceb df3d 3941 e73f
000000b0: 1f51 923f 0b3f aa3f febf 3a3f 53ed b13f
000000c0: fe01 b13f d241 b33f 9c71 253f 6630 ee3e
000000d0: b291 203f 9e10 043f 6046 063f 4f1c 943f
000000e0: b6c6 4a3f a58a 0e3f 3857 a03e 2527 dd3e
000000f0: f84b cf3e 2943 e53d 06f1 6a3c e8ab b6bc
00000100: 2fe0 333d 4fa3 bb3c 54f3 76bc 5507 1e3c
00000110: 416f 843d b1fb 223d c8fd 123d be90 3cbc
00000120: 93b4 f4bb fd44 4b3c 338e 96bb 6b25 a6bb
00000130: 7c72 c23c caa3 203d ea30 0d3d ac48 11bd
00000140: b7e6 d0bc 4406 1b3d 9fc5 033e 8f22 653d
00000150: 5e2c 99bc 8b2c 6abd bda4 98bd 9369 02bd
00000160: b199 523d 3442 81bd aec4 513a 7c9c 1abc
00000170: 6602 adbc 6ee7 51bd 58ee 083d 27a1 a1bc
00000180: 8b87 cbbd 09f2 e4bc e6b8 68bd 7132 b9bd
00000190: 69e8 81bd ec14 c5bc 20ec 92bd 8588 8dbd
000001a0: 5362 a3bd 3d08 9dbd 3b92 03bd 2650 c3bd
000001b0: 5071 9cbd 81d9 d2bd 3802 93bd 7860 84bd
000001c0: a3c2 06be 376e f9bd f806 c7bd 4f6a 4cbd
000001d0: 9075 92bc 09cb 51bd 8ea8 223d 7fc9 0fbd
000001e0: 22f3 12bc 0793 433d 0fbf a33c 1b95 043d
000001f0: b9ba 793c 449f 8abd c1d5 ed3b 6cf8 8ebc
00000200: f6c2 fcbc 0926 3bbd 8438 a2bd 4c99 92bd
00000210: 644a 3dbd cfde 11bd d30d 5bbd 8e70 f13b
00000220: f31f ee3a 9888 19bd 6ab9 cdbc adda edbc
00000230: 42c2 663b 42f0 6dbd b0c6 20bd ad57 49bd
00000240: c015 babd b1fa dabc 8830 21bd 6667 0ebd
00000250: 48e1 71bd 0773 90bc 7c93 0abd f4f7 923c
00000260: 0c25 4a3c 69a8 2b3d 8a2f 35bd 8e88 073d
00000270: dccd 24bd c23b 5a3b 5a2e d03b 01ac 093d
00000280: 7ce8 4e3c b9cb 233d c91f dabc 885e c03c
00000290: a995 f7bb 8a66 6fbc aad1 0c3d 4ce6 06bd
000002a0: a5a6 86bc da08 b23c 433d 8dbc 5db1 00bc
000002b0: aa7e 03bb 85c6 14bc 79c0 ffbc 5bfb 3e3c
000002c0: b9f8 b63b e8ec f23c 05e5 29bd 26c2 32bd
000002d0: 62f9 88bd c345 103b b4a0 c3bb d08b 823a
000002e0: 2e01 c3bc 0334 b93c 85a8 93bb 3df1 05bd
000002f0: fcbb 9c3c 40ad ac3c 853c fa3c a776 7a3a
00000300: ad3a 1d3d 4773 4f3c 884f b13c 4bfa 3d3d
00000310: 5c01 00bd 86f9 12bc 4502 96bd 4a84 73bd
00000320: 48b7 27bd c8ce 403b dcbc 05bc 8551 d3bb
00000330: b48e ea3c f28c 403d 43ea b43c 59da 06bb
00000340: 556e 72bc 83a2 543b d087 78bd 1da8 76bd
00000350: 697e a6bd a7f9 0abd 17ee f9bc cdda e8bc
00000360: 7a3f 95bc b560 67bd 2042 97bd 6f05 9abd
00000370: 0c3f b9bd 1ea4 04be db3e bfbd d594 d9bd
00000380: 3978 adbd 9294 47bd 918f 52bd 2461 2dbd
00000390: d689 efbc 6ff8 c3bd ce61 7abd db7b 97bd
000003a0: abb2 82bd a6f2 2bbd 88ad 60bd 4cdf 7abd
000003b0: 1805 98bd b0a0 15bd e212 f6bb 2c8a 98bd
000003c0: 0a7e 8bbc 96d9 e9bc c67f 70ba 9938 a5bc
000003d0: 1050 44bd a9f7 9a3c 7ae0 aabb dcf0 1f3d
000003e0: 598f 3bbb e9cd 1b3d 4a0c f9bc 253b d53c
000003f0: 3f2c 483c f92c 1a3d 6cf2 7f3d a01e 873d

bias f4 [256]
0.030436222 0.0018338695 -0.004288427 -0.030942533 -0.031472724 0.03575903 -0.00055330107 5.0878683e-05
-0.0013408557 -0.036552124 -0.040992122 -0.031395935 -0.023520544 0.03851201 0.017356643 0.0016309101
-0.011216075 0.0384239 0.018668363 0.030003851 -0.0072370386 -0.013685402 0.039204117 0.010236838
-0.00583375 0.038484033 0.037739675 0.0081630545 0.0078082466 -0.0017997454 -0.034425702 0.0194748
0.041317094 0.018600306 0.005160604 -0.0068180547 0.030653683 0.030767448 0.040533688 -0.040999625
0.022638531 -0.040231552 0.020573203 -0.02141577 -0.038699303 -0.035400126 -0.023098158 0.0019143013
0.0008313535 -0.0071644792 -0.029310998 0.024472792 0.0063763377 0.015742091 -0.009133133 0.041468862
-0.020828826 -0.027874254 0.008079108 0.033088617 -0.036036998 -0.030285237 -0.03711013 -0.01703538
-0.034573887 -7.18394e-05 0.028425327 0.034589272 -0.005433669 -0.02455729 0.036097713 0.034992367
0.015066896 -0.030986492 -0.036171995 0.027836815 -0.014173765 -0.0038435308 0.008507903 -0.03344812
-0.005122825 0.025040323 0.028061619 0.002804346 -0.028910156 -0.00029501406 0.018544858 -0.02611319
0.014499032 0.008667324 0.005595202 -0.015838768 -0.005647331 0.014231755 -0.030403186 -0.0037592885
0.008039865 0.037934043 0.005885199 -0.032387722 0.019414583 0.023695517 -0.022909742 -0.01102922
0.038476873 -0.025084017 -0.017999474 -0.001230289 0.0033533522 0.018625945 0.017852925 -0.025170168
0.013270951 0.028394932 -0.001933377 0.015774433 0.029627625 -0.009132816 0.036546376 -0.036246825
-0.038572863 0.0060302513 0.0049364795 -0.02504125 0.019927714 0.032550447 0.02110429 -0.039723452
0.003447899 -0.025282644 0.013800999 0.0065087657 0.03129298 0.024974858 0.024765385 -0.01241362
0.012410237 0.023354465 -0.00036853974 -0.014779877 0.00045385442 -0.031495996 0.009141166 -0.00240486
0.034362637 0.013740859 -0.036862057 0.0055348864 0.009270452 0.038493246 0.014755971 0.033304434
0.019676754 0.026606927 -0.0014790378 -0.0398475 0.011067432 0.003511191 -0.019581465 -0.00865242
-0.029754713 0.018076934 0.0351451 0.020499788 -0.038498547 0.0046473215 -0.034207918 0.030474063
0.018364513 0.03595292 0.01988087 0.00405434 -0.036446266 -0.012847117 0.03532202 0.030848766
-0.017045561 -0.0053872466 -0.0037526637 -0.03649777 -0.022848748 0.03951548 -0.021291375 -0.010995716
0.03207132 0.034756422 0.004368573 -0.004257775 -0.012566749 0.026088417 0.02546941 0.038928222
-0.012035099 -0.030875247 0.005712909 -0.037412602 0.019698147 0.0147256125 -0.01362874 0.0015959995
0.0354767 -0.018978778 -0.018331407 -0.008472836 -0.027850764 -0.01399898 0.025014551 0.0034749098
-0.027989665 -0.020734027 -0.038290776 0.038024936 0.0012986324 0.009469078 -0.0016230057 -0.015643205
0.03733406 0.03439583 -0.02760582 -0.006362297 -0.02822928 0.012075013 0.035088297 0.030342033
0.03317965 0.019843508 0.003790163 -0.010564044 -0.024023158 0.004582906 0.0007314764 0.0015173495
-0.01029942 0.0042682686 0.025476411 0.024043454 0.0013632831 -0.03709465 0.0098762605 0.006286323
0.03969649 0.009848984 0.009627118 0.0051921397 -0.029853165 -0.014034591 -0.037726343 -0.009589366
0.021888271 0.012042814 0.036487773 0.009751174 -0.0018870478 0.0006115898 -0.036051482 0.0035773844
00000000: 6255 f93c 735e f03a ef85 8cbb 327b fdbc
00000010: 8be9 00bd 1078 123d 680b 11ba 9266 5538
00000020: a7bf afba aeb7 15bd 5be7 27bd 0699 00bd
00000030: 28ae c0bc c5be 1d3d 852f 8e3c 43c4 d53a
00000040: a1c3 37bc 6162 1d3d 65ee 983c a3ca f53c
00000050: ae24 edbb bd38 60bc 7f94 203d 69b8 273c
00000060: 0b29 bfbb 6fa1 1d3d eb94 1a3d 55be 053c
00000070: 52dc ff3b 6fe5 ebba f701 0dbd 9e89 9f3c
00000080: 1d3c 293d ab5f 983c 491a a93b fd69 dfbb
00000090: 6f1d fb3c 040c fc3c a706 263d 39ef 27bd
000000a0: 7174 b93c d7c9 24bd 2289 a83c 2070 afbc
000000b0: 2983 1ebd b9ff 10bd 5938 bdbc 4be9 fa3a
000000c0: 30ef 593a 02c4 eabb 9e1d f0bc 2a7b c83c
000000d0: 99f0 d03b 8ff5 803c 23a3 15bc 41db 293d
000000e0: 37a1 aabc 8c58 e4bc 3c5e 043c ee87 073d
000000f0: 889b 13bd bf18 f8bc cb00 18bd c88d 8bbc
00000100: 599d 0dbd 7ca8 96b8 3bdc e83c 7bad 0d3d
00000110: eb0c b2bb 5f2c c9bc 32db 133d 2854 0f3d
00000120: 24db 763c 62d7 fdbc 1629 14bd 080a e43c
00000130: 1439 68bc bfe3 7bbb bb64 0b3c e500 09bd
00000140: 5fdd a7bb 5d21 cd3c 7be1 e53c 1ec9 373b
00000150: fed4 ecbc 1eac 9ab9 63eb 973c 54eb d5bc
00000160: 598d 6d3c 6401 0e3c f557 b73b 4ec0 81bc
00000170: 3f0d b9bb 4f2c 693c 1a10 f9bc 655e 76bb
00000180: a3b9 033c ba60 1b3d a1d8 c03b fda8 04bd
00000190: 550b 9f3c 1a1d c23c 36ad bbbc e7b3 34bc
000001a0: ed99 1d3d ff7c cdbc a273 93bc a641 a1ba
000001b0: eac3 5b3b 7095 983c 4c40 923c ab31 cebc
000001c0: 676e 593c 7d9c e83c 5e69 fdba 6239 813c
000001d0: a2b5 f23c cfa1 15bc a7b1 153d 8d77 14bd
000001e0: 94fe 1dbd 6a99 c53b 31c2 a13b 4f23 cdbc
000001f0: 723f a33c 9e53 053d e7e2 ac3c 0fb5 22bd
00000200: 25f6 613b 8c1d cfbc 961d 623c 7c47 d53b
00000210: 112d 003d 1398 cc3c c7e0 ca3c 7f62 4bbc
00000220: 4f54 4b3c dd51 bf3c 9138 c1b9 4c27 72bc
00000230: 4ff3 ed39 f201 01bd d4c4 153c db9a 1dbb
00000240: d6bf 0c3d 5721 613c abfc 16bd fe5d b53b
00000250: 18e3 173c 18ab 1d3d 07c3 713c 3b6a 083d
00000260: 2531 a13c c5f6 d93c 46dc c1ba 2237 23bd
00000270: 2d54 353c 031c 663b 4f69 a0bc e1c2 0dbc
00000280: 28c0 f3bc 1416 943c 4ff4 0f3d 2cef a73c
00000290: a7b0 1dbd 8f48 983b 9a1d 0cbd bea4 f93c
000002a0: 2d71 963c 5e43 133d 35dd a23c 45da 843b
000002b0: ae48 15bd b77c 52bc d3ad 103d 8db6 fc3c
000002c0: 22a3 8bbc 8087 b0bb 40ef 75bb b07e 15bd
000002d0: 4c2d bbbc fcda 213d 406b aebc 6027 34bc
000002e0: 375d 033d c05c 0e3d 3f26 8f3b ce84 8bbb
000002f0: c4e4 4dbc 60b7 d53c 39a5 d03c 3373 1f3d
00000300: dd2e 45bc 16ee fcbc 5b33 bb3b f53d 19bd
00000310: 025e a13c b243 713c 144b 5fbc db30 d13a
00000320: 0450 113d 6279 9bbc bf2b 96bc a6d1 0abc
00000330: 4927 e4bc fa5b 65bc 51eb cc3c 50bb 633b
00000340: 954a e5bc 68da a9bc cad6 1cbd 09c0 1b3d
00000350: df36 aa3a 3124 1b3c 09bb d4ba 2e26 80bc
00000360: 99eb 183d a4e2 0c3d 9a25 e2bc d17a d0bb
00000370: 1741 e7bc 46d6 453c bfb8 0f3d db8f f83c
00000380: 62e7 073d da8e a23c 6264 783b d014 2dbc
00000390: 37cc c4bc 342c 963b 8dc0 3f3a cde1 c63a
000003a0: e6be 28bc d5dc 8b3b e8b3 d03c c7f6 c43c
000003b0: 31b0 b23a 8ff0 17bd 0ad0 213c 80fd cd3b
000003c0: c998 223d a25d 213c 0fbb 1d3c d322 aa3b
000003d0: a08e f4bc 57f1 65bc f086 1abd b71c 1dbc
000003e0: 084f b33c 394f 453c 3474 153d 63c3 1f3c
000003f0: d156 f7ba 1953 203a b8aa 13bd 8d72 6a3b

weight f4 [256]
0.8940011 0.99634343 0.9568554 0.94200915 0.99651015 1.0244396 0.8946514 1.0013798
1.0217247 0.8365777 0.9724001 0.9103541 1.106019 0.9351814 1.0263075 0.92592
0.88425905 0.87945086 0.9907579 1.0220308 1.0875275 0.89116967 0.9891715 1.0537554
0.9712338 0.9750301 1.057592 0.88924503 1.0179515 0.8873408 0.9565805 0.9184711
1.0276644 0.92729646 0.92366123 0.98272824 1.0227528 0.9944179 0.99473166 0.9248398
0.93027306 1.007365 1.0185426 0.9807727 1.0418099 0.9808832 0.90845346 1.0966971
0.948357 1.0211053 0.88729787 0.96610916 1.0382527 0.9919361 1.011938 1.0690838
0.99601746 1.0268223 1.0419573 1.0135258 1.0657767 0.96531177 0.9714867 1.0315388
0.953417 1.0123718 0.9975781 1.0298682 1.0268048 0.81611127 1.0403585 0.9668034
0.8546318 0.9138173 1.0516576 0.8317651 0.92387164 0.879851 1.0018551 1.0024654
1.0220764 0.9719318 0.9014051 0.91774976 0.9786206 0.9149819 0.94894016 1.001395
0.946175 0.9745415 0.99418056 0.89963007 0.9493643 1.0758048 0.98425335 0.9510083
0.97832024 0.99960643 1.0067577 0.8218988 1.0673137 1.0725232 1.0243884 0.9470744
1.0136156 0.97212124 0.9294227 1.0047102 1.0069679 0.9773809 0.921679 0.9986853
1.0443412 1.0405505 0.99966407 0.98335207 0.9738837 0.9757233 0.98385835 0.9509862
0.9690324 0.98371327 0.90225476 0.9689174 0.96205115 0.9317932 0.99679923 0.9298076
0.97702986 1.0030799 0.9433239 0.89927727 0.9893324 0.9626901 0.9518244 0.9834252
0.9486911 0.8779337 1.0075766 1.0563294 0.85437256 0.95349485 0.9545136 1.0871025
0.9645463 1.0176955 0.9408347 0.90571594 0.89934576 1.0053536 0.94076914 0.907139
0.99336094 0.87345994 0.9927965 0.9487729 1.0565747 1.0172702 0.9780036 0.9073127
1.0009304 1.0523353 0.8706233 1.0642511 0.9765424 0.9201921 0.94561076 0.9193006
0.9590314 0.8364505 1.0436503 0.882482 0.9894853 0.9138856 0.83703977 0.98039895
1.0360323 0.99612594 0.96091044 0.9841203 1.0572543 0.87883186 0.79886836 1.0213944
0.9368601 0.9184774 1.0653528 0.9891019 1.0133724 0.9034536 1.0068768 0.9775303
0.987435 0.9729186 1.0258027 0.93496066 1.0007735 1.0357994 0.90709794 1.0006038
1.0027162 0.9483955 1.0265975 0.9695688 0.97110087 0.9789137 1.0683042 0.9763869
0.98857546 1.0530543 0.94769657 1.0057997 0.96942335 1.0230199 0.8956891 1.0422586
1.0222738 1.0630393 1.0214405 0.96060914 0.9660688 0.998578 0.9915905 1.0126
0.9432 0.99444354 1.0086733 0.87715364 1.0029727 1.0207101 1.0166383 0.97067493
0.99777794 1.0399375 0.96612287 0.8486045 1.0773234 1.0402739 0.8709216 0.95993835
1.0182784 0.99614865 1.0861914 0.9858562 0.96001095 1.0132143 0.98515755 0.9655563
0.9787461 0.96653634 1.0346334 0.9847097 0.9265872 1.0786223 0.9871265 0.929248
00000000: 42dd 643f 5d10 7f3f 7af4 743f 8327 713f
00000010: 4a1b 7f3f d620 833f e007 653f 372d 803f
00000020: e0c7 823f f529 563f 37ef 783f f70c 693f
00000030: 0892 8d3f 0c68 6f3f 0b5e 833f 1809 6d3f
00000040: cd5e 623f b123 613f 4fa2 7d3f e8d1 823f
00000050: 1a34 8b3f b223 643f 583a 7d3f 75e1 863f
00000060: c7a2 783f 939b 793f 2d5f 873f 90a5 633f
00000070: 3c4c 823f c428 633f 76e2 743f ec20 6b3f
00000080: 828a 833f 4d63 6d3f 1075 6c3f 1494 7b3f
00000090: 90e9 823f 2c92 7e3f bca6 7e3f 4dc2 6c3f
000000a0: 6026 6e3f 56f1 803f 9b5f 823f eb13 7b3f
000000b0: 075a 853f 291b 7b3f 6890 683f 9260 8c3f
000000c0: 86c7 723f 94b3 823f f425 633f ee52 773f
000000d0: 77e5 843f 86ef 7d3f 2f87 813f bdd7 883f
000000e0: 00fb 7e3f ea6e 833f db5e 853f 37bb 813f
000000f0: 5f6b 883f ac1e 773f 5ab3 783f 7709 843f
00000100: 2313 743f 6695 813f 4761 7f3f b9d2 833f
00000110: 576e 833f abec 503f 782a 853f 6d80 773f
00000120: 26c9 5a3f eeef 693f b79c 863f 8fee 543f
00000130: da82 6c3f ea3d 613f ca3c 803f c950 803f
00000140: 66d3 823f 86d0 783f 7cc2 663f a6f1 6a3f
00000150: e186 7a3f 413c 6a3f beed 723f b62d 803f
00000160: 8638 723f 8d7b 793f 9e82 7e3f 284e 663f
00000170: 8a09 733f f9b3 893f 07f8 7b3f 4875 733f
00000180: 3273 7a3f 35e6 7f3f 70dd 803f f667 523f
00000190: bc9d 883f 7148 893f 291f 833f 7873 723f
000001a0: 28be 813f f0dc 783f a5ee 6d3f 589a 803f
000001b0: 53e4 803f a235 7a3f 28f3 6b3f d7a9 7f3f
000001c0: f9ac 853f c230 853f fce9 7f3f f6bc 7b3f
000001d0: 7150 793f 01c9 793f 24de 7b3f d573 733f
000001e0: 8212 783f a2d4 7b3f 2bfa 663f f90a 783f
000001f0: fc48 763f 008a 6e3f 3c2e 7f3f df07 6e3f
00000200: a11e 7a3f ec64 803f ad7d 713f 0937 663f
00000210: e344 7d3f dc72 763f c4aa 733f c1c1 7b3f
00000220: 6cdd 723f 43c0 603f 45f8 803f cd35 873f
00000230: 29b8 5a3f 3d18 743f 015b 743f 2d26 8b3f
00000240: 82ec 763f d943 823f 8bda 703f 00dd 673f
00000250: 863b 663f 6daf 803f 3fd6 703f 433a 683f
00000260: e74c 7e3f 129b 5f3f e927 7e3f c8e2 723f
00000270: d73d 873f e935 823f 725e 7a3f a545 683f
00000280: 7d1e 803f ecb2 863f 2be1 5e3f 6139 883f
00000290: affe 793f b691 6b3f 8c13 723f 4957 6b3f
000002a0: 1583 753f 9f21 563f 5596 853f 57ea 613f
000002b0: e94e 7d3f 68f4 693f 3d48 563f 6dfb 7a3f
000002c0: b59c 843f 1c02 7f3f 3afe 753f 4fef 7b3f
000002d0: 1c54 873f 20fb 603f a382 4c3f 0dbd 823f
000002e0: 10d6 6f3f 5621 6b3f 7b5d 883f c835 7d3f
000002f0: 30b6 813f bc48 673f 57e1 803f 6d3f 7a3f
00000300: 8ac8 7c3f 3211 793f 814d 833f 9559 6f3f
00000310: 5919 803f 1395 843f 9237 683f c913 803f
00000320: 0159 803f 0cca 723f 8c67 833f a935 783f
00000330: 119a 783f 179a 7a3f 31be 883f 7ef4 793f
00000340: 4813 7d3f 7cca 863f 3e9c 723f 0bbe 803f
00000350: 212c 783f 51f2 823f e14b 653f bb68 853f
00000360: ded9 823f ac11 883f 90be 823f 7bea 753f
00000370: 4950 773f cfa2 7f3f e0d8 7d3f e09c 813f
00000380: 8e75 713f da93 7e3f 351c 813f 248d 603f
00000390: 6961 803f a1a6 823f 3421 823f 277e 783f
000003a0: 606e 7f3f ac1c 853f d453 773f 253e 593f
000003b0: bce5 893f b227 853f b8f4 5e3f 85be 753f
000003c0: f256 823f 9903 7f3f 5208 8b3f 1261 7c3f
000003d0: 47c3 753f 02b1 813f 4933 7c3f b32e 773f
000003e0: 1b8f 7a3f ed6e 773f de6e 843f ef15 7c3f
000003f0: d234 6d3f 4c10 8a3f 53b4 7c3f 32e3 6d3f

bias f4 [256]
-0.14130497 0.019869829 -0.05675748 -0.06457067 -0.016051255 -0.042556 -0.0926621 0.0055089328
0.006765194 -0.11638509 -0.07066178 -0.028754637 0.07298681 -0.12089386 0.032467924 -0.16541256
-0.12522043 -0.13825123 -0.019451223 -0.015367714 0.0859245 -0.109826006 0.056976203 0.010584442
-0.06127755 -0.046179295 0.08200822 -0.11466424 -0.018316658 -0.12690173 -0.05218584 -0.10350396
0.03663957 -0.064779766 -0.08000447 -0.057668455 0.1566899 0.0048823263 -0.0065150345 -0.02931869
-0.053172883 -0.0743805 -0.08233597 -0.103588924 -0.028452264 0.031642657 -0.111935124 0.04596336
-0.021473935 0.029031571 -0.07121374 -0.0044716946 -0.018279655 0.04251159 0.06568842 0.11912938
-0.0531402 -0.0128820585 -0.0037734164 0.03312761 0.031985294 -0.0019428188 -0.07585411 0.0010449683
-0.07266966 -0.0032132033 0.043296404 0.087826826 0.01591434 -0.15996064 -0.025348313 -0.04578466
-0.1202688 -0.14181471 0.057810195 -0.15765308 -0.03498988 -0.11506 -0.016754901 -0.029113209
-0.027371665 -0.06755078 -0.0803562 -0.061195858 -0.069136254 -0.097116716 -0.042989135 -0.05082544
-0.097449265 -0.02091182 -0.07718024 -0.089149825 -0.07220063 0.050078128 -0.05499945 -0.047009427
-0.19384316 0.020464825 -0.04286304 -0.16446277 -0.0019840277 0.03956473 -0.03311683 -0.08467439
0.023188647 -0.051939975 -0.028012775 -0.08491317 0.012437582 -0.04090395 -0.1031409 0.015360052
-0.00523208 -0.07712727 0.0064153816 0.054823115 -0.028813161 -0.039530974 -0.03155938 -0.04439464
-0.044851866 -0.027446285 -0.12297889 0.0098443525 0.0074129635 -0.073395416 0.033931408 -0.07200879
-0.06721606 0.012098951 -0.06702142 -0.15378818 -0.11958763 -0.020985711 -0.07463159 0.0126848705
-0.0052720364 -0.08668995 -0.0016425805 0.0015592676 -0.08758428 -0.057471376 -0.12409118 0.07095364
-0.09254019 -0.010003025 -0.07707989 -0.074086435 -0.1367657 -0.01107316 -0.08115277 -0.13102333
-0.07248398 -0.12447163 -0.0319747 -0.01123924 0.033631988 -0.051182725 -0.057942484 -0.07260243
-0.071542524 -0.014182015 -0.141344 -0.08188301 -0.050988216 -0.06554225 -0.013020259 -0.10144826
-0.07723526 -0.13382375 0.092302024 -0.081192575 -0.042993873 -0.09920915 -0.120592445 -0.070817895
-0.07140063 -0.009052001 -0.056128256 -0.045362514 0.046847496 -0.09559757 -0.15265428 0.021477899
-0.06637337 -0.13322398 0.02604211 -0.0744984 -0.008094939 -0.08842049 0.058040887 -0.045980524
-0.0045822165 -0.045116343 0.019950021 -0.08368151 -0.08401689 0.012793655 -0.08103737 -0.036823552
-0.04692813 -0.056828868 -0.009706142 -0.0016494596 -0.034104977 -0.0269262 0.036705986 -0.043394063
-0.06989967 0.10108644 -0.039454497 -0.09499203 -0.018974595 -0.060189307 -0.11511552 0.039057244
-0.023458619 0.011241756 0.021832557 0.07035298 -0.02003416 -0.08609167 0.0020340425 -0.081102274
-0.15804511 -0.01279866 0.012512516 -0.20332181 -0.034827325 -0.012968874 0.012066774 0.0033892435
0.037397068 0.1198248 -0.0031284874 -0.14305869 0.030757299 0.1598573 -0.10891615 -0.044904154
0.0018716921 -0.05018702 0.23454827 0.0059730974 -0.09469116 -0.02530223 0.0035647082 -0.08217171
-0.027028402 0.024750408 -0.0707044 -0.035592202 -0.085867375 0.048604738 -0.06137442 -0.058169566
00000000: 40b2 10be 0dc6 a23c 887a 68bd a13d 84bd
00000010: ec7d 83bc 334f 2ebd a1c5 bdbd 4784 b43b
00000020: 8fae dd3b 4e5b eebd 20b7 90bd d88e ebbc
00000030: 1c7a 953d 3397 f7bd 16fd 043d e961 29be
00000040: c939 00be bb91 0dbe 2c58 9fbc ddc8 7bbc
00000050: 2ff9 af3d 75ec e0bd e15f 693d 5e6a 2d3c
00000060: 2bfe 7abd 8026 3dbd edf3 a73d 16d5 eabd
00000070: d10c 96bc 87f2 01be d2c0 55bd e2f9 d3bd
00000080: 6013 163d 41ab 84bd 62d9 a3bd c235 6cbd
00000090: 5173 203e ecfb 9f3b 127c d5bb c02d f0bc
000000a0: cfcb 59bd ce54 98bd c39f a8bd 6e26 d4bd
000000b0: b914 e9bc bb9b 013d 3e3e e5bd 1444 3c3d
000000c0: 1bea afbc 9ed3 ed3c 82d8 91bd 4b87 92bb
000000d0: 37bf 95bc a220 2e3d a687 863d 1bfa f33d
000000e0: 8aa9 59bd 450f 53bc 6c4b 77bb d1b0 073d
000000f0: 0303 033d 2ea6 feba 6659 9bbd 51f7 883a
00000100: d5d3 94bd 9b94 52bb 9257 313d 8dde b33d
00000110: ca5e 823c b9cc 23be 44a7 cfbc b288 3bbd
00000120: 7d4f f6bd e037 11be 62ca 6c3d cf6f 21be
00000130: 8c51 0fbd 94a4 ebbd 9341 89bc d37e eebc
00000140: 8b3a e0bc 1058 8abd cb91 a4bd 82a8 7abd
00000150: 4f97 8dbd 21e5 c6bd 6015 30bd 562e 50bd
00000160: 7b93 c7bd 444f abbc ac10 9ebd 2f94 b6bd
00000170: eddd 93bd b91e 4d3d 1a47 61bd f58c 40bd
00000180: d27e 46be d9a5 a73c 2891 2fbd ee68 28be
00000190: 7606 02bb a00e 223d 83a5 07bd c469 adbd
000001a0: 1ef6 bd3c 03bf 54bd 0c7b e5bc f5e6 adbd
000001b0: 00c7 4b3c e68a 27bd 893b d3bd baa8 7b3c
000001c0: de71 abbb e7f4 9dbd 1f38 d23b 348e 603d
000001d0: 9409 ecbc 3beb 21bd 6944 01bd 27d7 35bd
000001e0: 97b6 37bd 08d7 e0bc 5bdc fbbd 354a 213c
000001f0: 72e8 f23b 5650 96bd a9fb 0a3d 5879 93bd
00000200: 93a8 89bd ae3a 463c 8742 89bd a67a 1dbe
00000210: 5cea f4bd 3aea abbc 72d8 98bd 34d4 4f3c
00000220: 0cc1 acbb 808a b1bd db4b d7ba 5760 cc3a
00000230: 635f b3bd 1b67 6bbd 8423 febd 2450 913d
00000240: b685 bdbd bae3 23bc 10dc 9dbd a1ba 97bd
00000250: 4f0c 0cbe 336c 35bc 6c33 a6bd fb2a 06be
00000260: 7b72 94bd fbea febd e7f7 02bd ca24 38bc
00000270: b2c1 093d faa4 51bd 1955 6dbd 95b0 94bd
00000280: e384 92bd af5b 68bc 7bbc 10be 48b2 a7bd
00000290: 05d9 50bd 043b 86bd ed52 55bc 1bc4 cfbd
000002a0: 852d 9ebd 1809 09be d808 bd3d 4b48 a6bd
000002b0: 581a 30bd 2b2e cbbd 2cf9 f6bd f908 91bd
000002c0: 7e3a 92bd d84e 14bc bee6 65bd 0bce 39bd
000002d0: 29e3 3f3d a9c8 c3bd 6751 1cbe 6bf2 af3c
000002e0: c3ee 87bd de6b 08be 4356 d53c 9e92 98bd
000002f0: a3a0 04bc cd15 b5bd 48bc 6d3d 1356 3cbd
00000300: 6b26 96bb eacb 38bd 3a6e a33c 3661 abbd
00000310: 0c11 acbd 7a9c 513c ecf6 a5bd 4bd4 16bd
00000320: b637 40bd 63c5 68bd 8306 1fbc ae32 d8ba
00000330: a9b1 0bbd 5694 dcbc 0459 163d f9bd 31bd
00000340: 8f27 8fbd 6806 cf3d 0a9b 21bd 2e8b c2bd
00000350: 9c70 9bbc 1089 76bd b0c1 ebbd 7dfa 1f3d
00000360: 4a2c c0bc 582f 383c 31da b23c 3915 903d
00000370: ae1e a4bc d450 b0bd 924d 053b f318 a6bd
00000380: 94d6 21be 79b1 51bc 4c01 4d3c 9833 50be
00000390: 19a7 0ebd 667b 54bc b8b3 453c 121e 5e3b
000003a0: ab2d 193d b466 f53d 4f07 4dbb fa7d 12be
000003b0: bbf6 fb3c a2b1 233e 6e0f dfbd 6bed 37bd
000003c0: 9153 f53a e890 4dbd 6c2d 703e f9b9 c33b
000003d0: 70ed c1bd 9f46 cfbc e19d 693b a449 a8bd
000003e0: ab6a ddbc 5ec1 ca3c 78cd 90bd 21c9 11bd
000003f0: 3cdb afbd c315 473d be63 7bbd 3643 6ebd

running_mean f4 [256]
-1119.5482 -501.28986 266.48425 -1272.9839 372.31216 520.21423 -207.12926 -296.89972
-888.80194 -156.89487 -63.25351 36.87108 -201.32564 1258.9237 -420.8683 569.8116
38.33778 -1839.0693 -467.7597 -579.9873 -100.329704 -295.14532 -115.055855 -116.82848
406.7357 -179.56827 164.62413 -81.99185 -170.04227 -206.32217 -759.29425 -1164.0758
-350.92303 -423.91187 -155.28859 -308.11014 -146.96558 409.98123 -97.71466 -516.2265
-462.559 416.17343 426.73926 -205.51015 -75.52088 -198.8644 741.1388 -135.1555
443.06732 -559.6278 -655.744 -367.72238 332.1689 -485.41272 369.77625 -452.4924
-1168.9629 -263.8603 -548.95483 58.78968 -65.14901 366.32703 376.06866 -127.275154
384.46893 298.31403 -1141.8494 -164.63211 -300.0533 -699.59906 488.87662 -77.159615
-1531.904 192.58914 -97.14309 -1527.7103 -1333.0726 -831.49066 -196.56032 -362.2513
-162.78445 292.305 85.99029 -1214.2623 -455.5516 -872.0171 -8.96513 -293.13425
361.17813 -1124.5565 -913.25433 -2045.3561 -622.8039 -370.9163 -282.84775 259.36865
217.67987 -245.2266 -902.2391 -2053.5005 -50.29706 -199.82016 -469.4473 1700.9464
100.499565 -871.99817 -1690.5005 -183.44186 6.264114 368.08307 -1.048167 -395.86624
-123.768654 203.24126 -505.15482 -419.80035 -1368.2615 -104.32472 -324.02798 -910.2952
917.4858 -540.1021 -1554.0367 374.90738 -165.46217 -912.56836 -426.89005 -1002.9819
312.91544 362.73956 -1529.9374 458.4112 -1556.017 -790.4411 -425.1689 -968.73303
315.89664 -138.69246 1105.9717 -188.95811 -311.85757 -1005.8817 1215.966 -93.95776
-319.74002 -433.8777 -471.41934 -1449.0974 105.0705 541.31995 -685.318 626.2984
419.78482 148.17973 -118.51294 -482.41516 -166.37927 -162.5124 -464.71155 -855.2101
-124.92342 -760.95966 -105.095085 -1113.7007 536.8119 -487.33447 -916.654 -398.53552
-790.0787 -1133.5393 177.4878 -1817.5027 -49.29475 -494.22427 -1171.0431 -992.3712
-206.2694 -853.5688 -621.3955 334.52676 -128.54584 -431.88257 -2172.5312 421.6697
-1041.9899 369.69806 -127.399216 -1312.7205 392.46295 1042.4122 -288.7838 -27.225468
-318.03177 -1417.8246 345.63126 330.06613 318.99365 -150.92871 -1418.5059 167.78271
460.12122 1067.9951 -853.68964 -683.0774 907.3766 -649.70026 -132.1246 -225.07156
830.9693 -216.35828 312.84726 243.85562 -245.45287 -791.8534 603.041 -248.0209
-224.8195 -204.5768 357.90137 -257.85684 -796.7974 149.75792 265.91013 -289.89557
-93.19411 -467.55542 -103.82934 1807.3833 274.17868 -84.53061 -278.953 -282.2972
-387.44702 60.701435 -603.8292 -598.893 -249.16754 -419.23428 -1455.7523 -621.5017
-196.78244 275.39984 65.48834 -1781.1696 750.56256 -88.71208 297.3541 -1274.861
-665.7797 -623.4909 215.49654 -24.443827 -899.1506 -104.48636 -130.66798 -37.692062
00000000: 8bf1 8bc4 1aa5 fac3 fc3d 8543 7c1f 9fc4
00000010: f527 ba43 b60d 0244 1721 4fc3 2a73 94c3
00000020: 5333 5ec4 16e5 1cc3 9803 7dc2 fc7b 1342
00000030: 5d53 49c3 8f5d 9d44 246f d2c3 f173 0e44
00000040: e359 1942 38e2 e5c4 3ee1 e9c3 30ff 10c4
00000050: cfa8 c8c2 9a92 93c3 991c e6c2 2fa8 e9c2
00000060: 2b5e cb43 7a91 33c3 c79f 2443 d4fb a3c2
00000070: d20a 2ac3 7a52 4ec3 d5d2 3dc4 6d82 91c4
00000080: 2676 afc3 b8f4 d3c3 e149 1bc3 190e 9ac3
00000090: 30f7 12c3 99fd cc43 e86d c3c2 7f0e 01c4
000000a0: 8d47 e7c3 3316 d043 a05e d543 9982 4dc3
000000b0: b10a 97c2 49dd 46c3 e248 3944 cf27 07c3
000000c0: 9e88 dd43 2ee8 0bc4 9eef 23c4 77dc b7c3
000000d0: 9f15 a643 d4b4 f2c3 5ce3 b843 073f e2c3
000000e0: d01e 92c4 1eee 83c3 1c3d 09c4 a228 6b42
000000f0: 4b4c 82c2 dc29 b743 ca08 bc43 e18c fec2
00000100: 063c c043 3228 9543 2ebb 8ec4 d2a1 24c3
00000110: d306 96c3 57e6 2ec4 3570 f443 b951 9ac2
00000120: ee7c bfc4 d296 4043 4349 c2c2 bbf6 bec4
00000130: 53a2 a6c4 67df 4fc4 718f 44c3 2b20 b5c3
00000140: d2c8 22c3 0a27 9243 07fb ab42 65c8 97c4
00000150: 9bc6 e3c3 1801 5ac4 2c71 0fc1 2f91 92c3
00000160: cd96 b443 cf91 8cc4 4750 64c4 65ab ffc4
00000170: 73b3 1bc4 4975 b9c3 836c 8dc3 30af 8143
00000180: 0cae 5943 023a 75c3 4d8f 61c4 0258 00c5
00000190: 3030 49c2 f6d1 47c3 41b9 eac3 499e d444
000001a0: c7ff c842 e2ff 59c4 0450 d3c4 1e71 37c3
000001b0: 9f73 c840 a20a b843 562a 86bf e1ee c5c3
000001c0: 8d89 f7c2 c33d 4b43 d193 fcc3 72e6 d1c3
000001d0: 5e08 abc4 42a6 d0c2 9503 a2c3 e592 63c4
000001e0: 175f 6544 8906 07c4 2d41 c2c4 2574 bb43
000001f0: 5176 25c3 6024 64c4 ed71 d5c3 d7be 7ac4
00000200: 2d75 9c43 aa5e b543 ff3d bfc4 a234 e543
00000210: 8b80 c2c4 3b9c 45c4 9f95 d4c3 ea2e 72c4
00000220: c5f2 9d43 45b1 0ac3 183f 8a44 47f5 3cc3
00000230: c5ed 9bc3 6e78 7bc4 e9fe 9744 60ea bbc2
00000240: b9de 9fc3 58f0 d8c3 adb5 ebc3 1e23 b5c4
00000250: 1924 d242 7a54 0744 5a54 2bc4 1993 1c44
00000260: 75e4 d143 032e 1443 a006 edc2 2435 f1c3
00000270: 1861 26c3 2d83 22c3 145b e8c3 72cd 55c4
00000280: cbd8 f9c2 6b3d 3ec4 af30 d2c2 6c36 8bc4
00000290: f633 0644 d0aa f3c3 db29 65c4 8c44 c7c3
000002a0: 0985 45c4 42b1 8dc4 e07c 3143 1630 e3c4
000002b0: d32d 45c2 b51c f7c3 6161 92c4 c217 78c4
000002c0: f744 4ec3 6764 55c4 5059 1bc4 6d43 a743
000002d0: bc8b 00c3 f8f0 d7c3 80c8 07c5 b9d5 d243
000002e0: ad3f 82c4 5ad9 b843 66cc fec2 0e17 a4c4
000002f0: 423b c443 314d 8244 5464 90c3 c2cd d9c1
00000300: 1104 9fc3 633a b1c4 cdd0 ac43 7708 a543
00000310: 307f 9f43 c0ed 16c3 3050 b1c4 60c8 2743
00000320: 840f e643 d87f 8544 236c 55c4 f4c4 2ac4
00000330: 1ad8 6244 d16c 22c4 e61f 04c3 5212 61c3
00000340: 09be 4f44 b85b 58c3 736c 9c43 0adb 7343
00000350: ef73 75c3 9ef6 45c4 a0c2 1644 5a05 78c3
00000360: cbd1 60c3 a993 4cc3 60f3 b243 aded 80c3
00000370: 0933 47c4 07c2 1543 7ff4 8443 a2f2 90c3
00000380: 6263 bac2 18c7 e9c3 9fa8 cfc2 44ec e144
00000390: df16 8943 ac0f a9c2 fc79 8bc3 0b26 8dc3
000003a0: 38b9 c1c3 45ce 7242 12f5 16c4 27b9 15c4
000003b0: e42a 79c3 fd9d d1c3 13f8 b5c4 1c60 1bc4
000003c0: 4ec8 44c3 2eb3 8943 08fa 8242 6da5 dec4
000003d0: 01a4 3b44 966c b1c2 53ad 9443 8d5b 9fc4
000003e0: e771 26c4 6bdf 1bc4 1d7f 5743 f58c c3c1
000003f0: a3c9 60c4 04f9 d0c2 01ab 02c3 acc4 16c2

running_var f4 [256]
496764.12 75906.664 246818.1 192097.05 153638.05 40142.035 675581.6 116236.99
691492.06 792055.6 93646.46 652931.5 54312.277 928261.94 24666.852 206204.58
795123.5 1.062585e+06 340059.5 105532.27 31153.355 239941.27 30460.992 29715.273
119388.62 82835.1 25751.03 491887.66 35704.8 575930.6 659334.4 1.2104155e+06
95910.84 225404.75 99983.89 83636.31 47234.586 81882.3 92582.97 97604.92
618962.3 63879.484 53854.203 164505.61 17880.805 120561.13 708343.2 15927.925
152123.81 47474.51 377958.53 137630.56 49692.016 70902.46 70564.6 16963.781
397504.06 51699.457 24244.27 11290.578 6620.6587 98665.89 56006.22 40552.1
140617.06 109796.11 226720.64 29424.96 64768.973 671516.0 53245.273 337063.03
4.0942662e+06 188337.02 38618.5 2.1304965e+06 960080.4 611481.3 47202.875 91322.914
32864.08 92643.49 230084.52 794827.75 141122.14 258961.02 200666.64 57032.14
167278.7 116371.43 425517.78 1.8688615e+06 393387.34 32799.445 74777.55 212765.83
59065.344 75670.62 293594.66 4.5301915e+06 63360.63 59383.613 107991.12 740882.0
43816.246 131281.64 1.4149804e+06 68605.21 42225.562 73490.766 768761.8 107308.48
28047.256 40955.676 43729.555 30203.773 681030.2 110708.73 112621.26 193737.12
426968.75 142963.38 254828.12 72028.875 131858.17 1.3711711e+06 33794.3 1.8820094e+06
131231.16 32528.844 239132.33 152619.83 230585.78 172430.44 844169.6 336347.22
240965.97 148194.78 182429.61 44164.746 644872.1 503993.3 665071.7 17997.865
71138.63 89549.79 282247.22 4.2754905e+06 549823.9 87391.6 324782.12 472988.94
106432.91 602092.94 11073.946 194824.39 26219.367 38009.223 60150.42 1.4194951e+06
48305.777 58877.4 963302.2 236783.61 102905.49 546201.5 316255.5 584643.56
263026.72 4.996181e+06 28595.646 9.24472e+06 216439.25 97627.36 1.2550844e+06 112617.31
27954.58 141710.98 142919.89 48667.766 46070.715 389774.4 9.084895e+06 95108.83
599565.94 343230.03 15982.303 404302.78 69663.66 285042.62 63502.727 177017.9
87187.13 473445.6 27060.354 605199.1 98506.2 63146.945 1.4395711e+06 92642.63
144678.72 335600.16 120339.62 217550.28 78910.086 1.0402054e+06 29747.652 127910.79
193348.31 33752.023 219288.23 35691.113 203187.36 83151.87 406384.6 47970.54
49775.35 49518.19 42726.742 49019.77 198429.56 53111.49 107979.78 52947.88
108332.266 531524.2 28949.273 727969.9 135446.19 63943.215 63237.35 47123.09
105045.39 33139.797 295499.9 485592.22 61079.223 26550.455 5.1176805e+06 402892.34
27168.822 49479.867 15703.25 378627.47 224438.2 143660.16 45147.758 123352.76
202514.55 234491.67 44536.78 64914.55 1.8097902e+06 24243.283 216188.61 153961.95
00000000: 848f f248 5541 9447 8608 7148 4398 3b48
00000010: 8309 1648 09ce 1c47 daef 2449 7f06 e347
00000020: 41d2 2849 7a5f 4149 3be7 b647 3868 1f49
00000030: 4728 5447 5fa0 6249 b4b5 c046 255f 4948
00000040: 381f 4249 c8b5 8149 700b a648 231e ce47
00000050: b662 f346 5151 6a48 fcf9 ed46 8c26 e846
00000060: 4f2e e947 8dc9 a147 0f2e c946 f52d f048
00000070: cd78 0b47 aa9b 0c49 66f8 2049 7cc1 9349
00000080: 6c53 bb47 301f 5c48 f247 c347 285a a347
00000090: 9682 3847 26ed 9f47 7cd3 b447 76a2 be47
000000a0: 251d 1749 7c87 7947 345e 5247 67a6 2048
000000b0: 9cb1 8b46 9178 eb47 73ef 2c49 b3df 7846
000000c0: f48e 1448 8372 3947 d18c b848 a467 0648
000000d0: 041c 4247 3b7b 8a47 4dd2 8947 9087 8446
000000e0: 0218 c248 75f3 4947 8a68 bd46 506a 3046
000000f0: 45e5 ce45 f2b4 c047 38c6 5a47 1a68 1e47
00000100: 4452 0948 0e72 d647 2968 5d48 ece1 e546
00000110: f900 7d47 c0f1 2349 46fd 4f47 e194 a448
00000120: e9e4 794a 41ec 3748 80da 1647 0209 024a
00000130: 0665 6a49 9549 1549 e062 3847 755d b247
00000140: 1460 0047 bff1 b447 21b1 6048 bc0c 4249
00000150: 89d0 0948 41e4 7c48 a9f6 4348 24c8 5e47
00000160: ad5b 2348 b749 e347 b9c5 cf48 ec21 e449
00000170: 6b15 c048 721f 0047 c60c 9247 75c7 4f48
00000180: 58b9 6647 4fcb 9347 555b 8f48 1f40 8a4a
00000190: a180 7747 9df7 6747 8feb d247 20e1 3449
000001a0: 3f28 2b47 6934 0048 23ba ac49 9bfe 8547
000001b0: 90f1 2447 6289 8f47 9daf 3b49 3d96 d147
000001c0: 831e db46 adfb 1f47 8ed1 2a47 8cf7 eb46
000001d0: 6344 2649 5d3a d847 a1f6 db47 4832 3d48
000001e0: 187b d048 d89c 0b48 08db 7848 70ae 8c47
000001f0: 8bc4 0048 1961 a749 4d02 0447 cbbc e549
00000200: ca27 0048 b021 fe46 1587 6948 f50a 1548
00000210: 722e 6148 9c63 2848 9a18 4e49 673b a448
00000220: 7e51 6b48 b2b8 1048 6727 3248 bf84 2c47
00000230: 8270 1d49 2a17 f648 fb5e 2249 bb9b 8c46
00000240: 51f1 8a47 e5e6 ae47 e7d0 8948 457a 824a
00000250: fe3b 0649 cdaf aa47 c495 9e48 9ef3 e648
00000260: 74e0 cf47 cffe 1249 c907 2d46 1942 3e48
00000270: bcd6 cc46 3979 1447 6cf6 6a47 3947 ad49
00000280: c7b1 3c47 66fd 6547 632e 6b49 e73b 6748
00000290: bffc c847 9859 0549 f06b 9a48 39bc 0e49
000002a0: 576e 8048 aa78 984a 4b67 df46 3010 0d4b
000002b0: d05d 5348 aead be47 6335 9949 a8f4 db47
000002c0: 2965 da46 bf63 0a48 f991 0b48 c41b 3e47
000002d0: b7f6 3347 cd51 be48 df9f 0a4b 6ac2 b947
000002e0: df60 1249 c197 a748 36b9 7946 d969 c548
000002f0: d40f 8847 542e 8b48 ba0e 7847 7ade 2c48
00000300: 9149 aa47 b32c e748 b568 d346 f2c0 1349
00000310: 1a65 c047 f2aa 7647 99ba af49 51f1 b447
00000320: ae49 0d48 05de a348 cf09 eb47 9273 5448
00000330: 0b1f 9a47 d6f4 7d49 4e67 e846 65d3 f947
00000340: 14d1 3c48 06d8 0347 0f26 5648 1d6b 0b47
00000350: d76c 4648 ef67 a247 136e c648 8a62 3b47
00000360: 5a6f 4247 316e 4147 bee6 2647 c57b 3f47
00000370: 64c7 4148 7d77 4f47 e4e5 d247 e1d3 4e47
00000380: 2296 d347 43c4 0149 8c2a e246 1eba 3149
00000390: 8c45 0448 37c7 7947 5a05 7747 1713 3847
000003a0: b22a cd47 cc73 0147 7d49 9048 071b ed48
000003b0: 3997 6e47 e96c cf46 e12d 9c4a 8bb9 c448
000003c0: a541 d446 de47 4147 005d 7546 6fe0 b848
000003d0: 8d2d 5b48 0a4b 0c48 c25b 3047 61ec f047
000003e0: a3c4 4548 ebfe 6448 c8f8 2d47 8d92 7d47
000003f0: f2eb dc49 9166 bd46 271f 5348 7d5a 1648

weight f4 [64, 256]
-0.010569645 -0.05968844 -0.030801857 0.09541883 -0.018598126 -0.035795216 0.077499494 -0.06373762
0.05980705 -0.0071593393 0.006395665 0.043430187 -0.04983002 0.026329894 -0.098860726 0.011614217
0.025919773 0.08270123 -0.034477662 0.006852554 -0.07743533 -0.02027634 -0.06632902 -0.037707683
0.046489738 0.116662756 0.0042501846 0.0025653122 -0.081457235 0.0018294131 0.07634085 0.06079193
0.0603399 -0.045911424 0.02994516 0.040362082 0.03842255 -0.091554746 0.12087258 0.029795242
0.04116613 0.03642959 -0.047244377 0.014672309 0.04507672 0.03290641 0.050143752 0.010625679
0.037104607 -0.042773202 0.07336493 -0.04001951 -0.03196815 0.026529174 -0.056909367 -0.008390677
-0.04372401 -0.06903032 0.08818785 -0.10046978 0.0009370566 0.040156994 0.08295144 -0.004339178
0.04828108 0.041395027 -0.08965138 -0.050993185 0.07830931 -0.036697283 -0.23022386 0.07803004
0.0709225 -0.011570675 -0.06487104 0.04399937 -0.08856319 0.07500759 -0.008934015 0.023062723
0.022689607 0.029691534 -0.015066888 -0.009113275 0.06315742 -0.0014965148 0.07265396 -0.0071037663
0.006014936 0.049213883 0.15743147 -0.0027003586 0.056315996 -0.09722982 -0.00373984 -0.011518109
0.06251321 0.08598644 0.012583371 -0.02300307 0.10718407 -0.026990877 0.065950796 -0.009230516
-0.031206269 0.034041572 0.04044765 -0.03059227 0.0022365146 0.024195556 -0.028019318 -0.06359744
0.053217504 -0.04694817 0.05757148 0.0036738475 -0.050446823 -0.008028789 0.03324659 -0.03843007
0.015310427 0.03282592 0.07959005 -0.096222475 0.062396094 0.020905854 -0.038826898 -0.013039942
-0.06152937 0.043020777 0.093113676 0.040704414 0.10452093 0.039269734 0.04511252 0.04082278
0.060150158 -0.011811543 0.043843906 0.0326832 0.0010431105 0.0951402 -0.0064823637 -0.036060113
-0.009851494 -0.041011896 -0.08818622 0.025971916 -0.052749462 -0.08941501 0.10682744 -0.02221094
-0.060972966 0.036923923 0.07053431 -0.05987347 0.030378899 -0.012077271 -0.035950452 -0.026299035
-0.06595361 0.092949085 -0.008584632 0.21223296 0.09480638 -0.036197845 0.024236642 0.033014745
0.06897462 0.023879545 0.08786007 0.060571466 0.018421495 -0.046695225 -0.028680837 -0.0073797987
0.02928442 0.05256212 -0.028689047 -0.022179957 0.007860972 0.029815549 -0.009412288 -0.052086998
-0.028150262 -0.061292212 -0.083700195 -0.0419215 -0.028929457 -0.01570904 0.0042561055 0.015543381
-0.070004106 0.07355794 0.06558665 0.012684799 -0.047162075 -0.054961015 0.092347555 0.068499826
0.03716289 -0.051780686 -0.027194759 0.026562637 0.019299425 0.029055027 -0.110362165 -0.037273545
0.026182603 -0.008869244 0.040340666 0.014938765 -0.08736931 -0.034106925 -0.00060025614 -0.070005916
-0.039659124 0.08901583 -0.053577304 -0.02331793 0.01898526 -0.04433757 -0.03962285 -0.004573157
-0.097551644 -0.05942588 -0.0034488055 -0.049924523 -0.015276832 -0.08452128 0.012274252 0.026550924
-0.07081101 0.008486602 -0.008656836 0.040427696 0.06719975 0.0892197 0.0010416377 0.08999746
0.030081175 0.00425066 0.032769654 0.04837591 0.0071104113 -0.003337021 0.00025480386 0.08278683
0.0047810627 0.04667849 -0.0077275266 -0.018941503 0.042362414 0.009415516 -0.0066505754 -0.03529205
00000000: 4e2c 2dbc de7b 74bd 2d54 fcbc f36a c33d
00000010: 195b 98bc 019e 12bd 0eb8 9e3d df88 82bd
00000020: 3df8 743d e498 eabb ba92 d13b dae3 313d
00000030: 901a 4cbd cab1 d73c 7e77 cabd 8f49 3e3c
00000040: b455 d43c 435f a93d 7338 0dbd 648b e03b
00000050: 6a96 9ebd 911a a6bc 82d7 87bd 5f73 1abd
00000060: 066c 3e3d e2ec ee3d 2245 8b3b cc1e 283b
00000070: 0dd3 a6bd ebc8 ef3a 9758 9c3d f500 793d
00000080: f926 773d 9e0d 3cbd 8d4f f53c b652 253d
00000090: f760 1d3d 0e81 bbbd 0b8c f73d 2715 f43c
000000a0: d19d 283d 3237 153d 5283 41bd 2064 703c
000000b0: 5ea2 383d dfc8 063d 8963 4d3d 5417 2e3c
000000c0: 00fb 173d f432 2fbd 5a40 963d 7feb 23bd
000000d0: 09f1 02bd b653 d93c cc19 69bd 0d79 09bc
000000e0: f317 33bd c55f 8dbd d59b b43d 1ac3 cdbd
000000f0: cea4 753a a97b 243d 72e2 a93d aa2f 8ebb
00000100: 62c2 453d d58d 293d 259b b7bd 3bde 50bd
00000110: a260 a03d e44f 16bd cebf 6bbe 37ce 9f3d
00000120: d13f 913d ee92 3dbc 1cdb 84bd af38 343d
00000130: 9e60 b5bd 949d 993d fa5f 12bc 09ee bc3c
00000140: 8edf b93c a93b f33c 1cdb 76bc d94f 15bc
00000150: ad58 813d b426 c4ba 99cb 943d b6c6 e8bb
00000160: f118 c53b 7f94 493d b735 213e 80f8 30bb
00000170: 9aab 663d 6e20 c7bd 1a18 75bb 73b6 3cbc
00000180: ed06 803d a919 b03d 7c2a 4e3c ef70 bcbc
00000190: 5283 db3d f91b ddbc 3611 873d 973b 17bc
000001a0: 4aa4 ffbc 2d6f 0b3d 6fac 253d a49c fabc
000001b0: 7d92 123b c235 c63c c588 e5bc 603f 82bd
000001c0: 99fa 593d b94c 40bd 12d0 6b3d efc4 703b
000001d0: 54a1 4ebd 2f8b 03bc 942d 083d d968 1dbd
000001e0: 96d8 7a3c 7974 063d 1c00 a33d 4a10 c5bd
000001f0: 0c93 7f3d c142 ab3c f408 1fbd 7ba5 55bc
00000200: 3806 7cbd 8e36 303d 62b2 be3d acb9 263d
00000210: 120f d63d 4dd9 203d e8c7 383d ca35 273d
00000220: 0360 763d 3485 41bc ab95 333d d2de 053d
00000230: fbb8 883a ddd8 c23d 026a d4bb c5b3 13bd
00000240: 2968 21bc 17fc 27bd fa9a b4bd 0ec3 d43c
00000250: d20f 58bd 371f b7bd 58c8 da3d b8f3 b5bc
00000260: cabe 79bd 8a3d 173d 4b74 903d e23d 75bd
00000270: 2bdd f83c bfdf 45bc c840 13bd 1371 d7bc
00000280: b012 87bd 175c be3d 8ea6 0cbc 9953 593e
00000290: d929 c23d 3144 14bd ec8b c63c 783a 073d
000002a0: 9142 8d3d 099f c33c fbef b33d c919 783d
000002b0: ade8 963c 7e43 3fbd 13f4 eabc 3dd2 f1bb
000002c0: e1e5 ef3c 614b 573d 4b05 ebbc beb2 b5bc
000002d0: 4ecb 003c bd3f f43c ff35 1abc 2d59 55bd
000002e0: 619b e6bc 8b0d 7bbd 026b abbd e1b5 2bbd
000002f0: 78fd ecbc 3fb0 80bc cd76 8b3b aaa9 7e3c
00000300: 505e 8fbd 8ca5 963d 4b52 863d e7d3 4f3c
00000310: 052d 41bd cd1e 61bd b720 bd3d a349 8c3d
00000320: 1d38 183d fc17 54bd 8bc7 debc e399 d93c
00000330: d419 9e3c cf04 ee3c 8f05 e2bd 25ac 18bd
00000340: e67c d63c 4e50 11bc 413c 253d b9c1 743c
00000350: aeee b2bd b4b3 0bbd 825a 1dba 435f 8fbd
00000360: 9b71 22bd ee4d b63d e073 5bbd 3e05 bfbc
00000370: fa86 9b3c 509b 35bd 924b 22bd 6cda 95bb
00000380: 28c9 c7bd 8d68 73bd 5b05 62bb a87d 4cbd
00000390: ad4b 7abc 7e19 adbd f219 493c 5381 d93c
000003a0: 5d05 91bd 640b 0b3c 67d5 0dbc 8397 253d
000003b0: 06a0 893d d1b8 b63d 9087 883a 9750 b83d
000003c0: cc6c f63c 1f49 8b3b 7939 063d d125 463d
000003d0: 74fe e83b ecb1 5abb 3297 8539 248c a93d
000003e0: 76aa 9c3b f231 3f3d 3137 fdbb 362b 9bbc
000003f0: 3684 2d3d 8943 1a3c 12ed d9bb 668e 10bd

bias f4 [64]
-0.05973464 -0.009412168 0.06037765 -0.044693336 -0.011590975 -0.028837519 0.013989911 0.04442308
-0.016146636 -0.019790195 0.024259845 -0.043214176 -0.01964101 -0.049689874 -0.036028266 -0.018771535
0.040806036 0.008096095 -0.054835163 0.034483906 0.0517235 -0.026164526 -0.01567175 0.037517242
0.02793135 0.03267734 -0.0035068989 0.0027473911 -0.058548864 0.021020953 -0.03203805 -0.054778017
0.058781248 0.020811424 -0.010804673 0.010100106 0.014115197 0.032624602 -0.048337974 0.009116715
-0.012462486 0.029566364 -0.060876634 -0.04734486 -0.05050803 0.026292557 -0.019708505 -0.06961108
0.020742761 -0.042626817 0.053233262 0.002957291 -0.00028556935 -0.030892856 0.007203567 0.00333356
0.004360619 -0.0503381 0.05763648 0.043386623 0.053647906 0.015276591 -0.016229184 -0.003458539
00000000: 4fac 74bd 7e35 1abc 8e4e 773d 5c10 37bd
00000010: 13e8 3dbc a93c ecbc f135 653c faf4 353d
00000020: f345 84bc 0c1f a2bc 95bc c63c 5901 31bd
00000030: 2fe6 a0bc 9c87 4bbd 6092 13bd c3c6 99bc
00000040: 3b24 273d 7ca5 043c d69a 60bd ff3e 0d3d
00000050: 05dc 533d fd56 d6bc 0b62 80bc aeab 193d
00000060: 49d0 e43c add8 053d 00d4 65bb 930d 343b
00000070: efd0 6fbd 2234 ac3c 553a 03bd ea5e 60bd
00000080: 9bc4 703d b87c aa3c 1506 31bc ea7a 253c
00000090: 6d43 673c 60a1 053d 0afe 45bd 465e 153c
000000a0: 742f 4cbc 2935 f23c c759 79bd afec 41bd
000000b0: 82e1 4ebd 7d63 d73c bb73 a1bc 4190 8ebd
000000c0: b9ec a93c 7599 2ebd 1f0b 5a3d 1ccf 413b
000000d0: 78b8 95b9 0413 fdbc e60b ec3b db77 5a3b
000000e0: 86e3 8e3b 532f 4ebd 3b14 6c3d 2cb6 313d
000000f0: e8bd 5b3d ab4a 7a3c 11f3 84bc a8a8 62bb

weight f4 [64]
0.9977232 1.0606234 0.6312674 1.0251389 1.0947827 1.019865 0.7002229 1.0574346
0.7066179 1.0749882 0.96006274 1.0294793 1.0575765 1.0715082 1.0164492 1.053006
1.000867 1.0893887 1.043073 1.015293 0.5804848 1.104322 1.0128429 1.0151473
1.0647948 0.97981286 1.0520116 0.99629074 1.0434028 1.133529 1.057791 1.0180084
0.9829332 1.0243734 0.979043 1.0020244 1.1960605 1.094236 1.0268314 0.9624776
1.1020856 0.98499155 0.95401186 1.0372254 0.995808 0.9421387 1.0280893 1.1594005
1.0783626 0.5303097 1.0528313 0.6274903 0.96180505 1.0012572 1.023153 0.9503492
1.1043355 1.0626789 1.0314655 1.0037235 1.0158463 1.0677874 1.0188016 0.9366936
00000000: ca6a 7f3f 82c2 873f be9a 213f c037 833f
00000010: d721 8c3f f08a 823f cf41 333f 045a 873f
00000020: e9e4 343f 3799 893f acc6 753f fac5 833f
00000030: ab5e 873f 2e27 893f 021b 823f e7c8 863f
00000040: 691c 803f 1771 8b3f 6b83 853f 1ff5 813f
00000050: a79a 143f 6c5a 8d3f d6a4 813f 59f0 813f
00000060: 324b 883f 04d5 7a3f 51a8 863f e90c 7f3f
00000070: 398e 853f 7a17 913f b265 873f 194e 823f
00000080: 83a1 7b3f ab1e 833f 90a2 7a3f 5642 803f
00000090: 8318 993f ed0f 8c3f 366f 833f ef64 763f
000000a0: 2411 8d3f 6828 7c3f 1f3a 743f cdc3 843f
000000b0: 46ed 7e3f 0030 713f 6e98 833f 3c67 943f
000000c0: c907 8a3f 60c2 073f 2dc3 863f 34a3 203f
000000d0: db38 763f 3229 803f adf6 823f 164a 733f
000000e0: de5a 8d3f dd05 883f 1007 843f 037a 803f
000000f0: 4007 823f 42ad 883f 1768 823f 27cb 6f3f

bias f4 [64]
-0.042167664 -0.028040646 -0.3579493 0.018498652 -0.16792235 -0.024181014 -0.31042746 -0.21833834
-0.30659747 -0.0035518503 -0.024633504 -0.1728774 -0.18643337 -0.012705706 -0.11704501 -0.18621404
-0.028499346 -0.036073145 -0.00815425 0.0069555636 -0.36542225 -0.057040542 -0.019747013 -0.013153358
-0.032859035 -0.0043548704 -0.0046346597 -0.10235008 -0.14659646 -0.030356549 -0.16161628 0.0028444186
-0.02711382 0.006127381 -0.16097054 -0.013361525 -0.039713945 -0.054519407 -0.12076874 -0.01904754
-0.07286437 -0.034072172 -0.08982069 -0.017952966 -0.06608945 -0.036805578 -0.018851887 -0.25058353
-0.21199583 -0.425997 -0.02520584 -0.35935837 -0.183948 -0.08700108 -0.03543785 -0.05826572
0.012433444 -0.18404655 -0.025828976 -0.03531969 -0.03271849 0.055243082 0.0042459094 -0.033629116
00000000: 00b8 2cbd 7fb5 e5bc 2145 b7be 7c8a 973c
00000010: d6f3 2bbe 4317 c6bc 59f0 9ebe 1694 5fbe
00000020: 58fa 9cbe 29c6 68bb 34cc c9bc c606 31be
00000030: 64e8 3ebe 982b 50bc 4bb5 efbd e5ae 3ebe
00000040: 7677 e9bc 6fc1 13bd 6799 05bc 7feb e33b
00000050: a018 bbbe 58a3 69bd 7dc4 a1bc 2f81 57bc
00000060: 3297 06bd 4db3 8ebb 58de 97bb eb9c d1bd
00000070: 621d 16be 4cae f8bc bd7e 25be 6d69 3a3b
00000080: cd1d debc 33c8 c83b 76d5 24be 4cea 5abc
00000090: 17ab 22bd be4f 5fbd 9a55 f7bd 9609 9cbc
000000a0: ea39 95bd 438f 0bbd e9f3 b7bd 1912 93bc
000000b0: e859 87bd 72c1 16bd 466f 9abc 7c4c 80be
000000c0: 6f15 59be 471c dabe 7a7c cebc d2fd b7be
000000d0: dd5c 3cbe 9f2d b2bd 4727 11bd 09a8 6ebd
000000e0: a5b5 4b3c b376 3cbe 4a97 d3bc 61ab 10bd
000000f0: d303 06bd 9246 623d 4521 8b3b afbe 09bd

running_mean f4 [64]
0.4040595 -2.0678082 -1.2577649 0.37391302 -0.6831807 -0.03713699 -2.050301 0.02420568
-1.394463 0.079391845 0.17205645 -0.3217371 -0.08932838 -0.62463737 0.09478744 -0.27906287
-0.2880507 0.27410915 0.27451313 0.12725793 -1.5320019 0.1351804 0.19508183 1.76421
0.2843222 0.15846288 -1.0228158 -1.407673 -0.11190702 -0.19297864 0.13923375 -0.13896284
0.6528044 -0.0705896 -0.0743299 0.10244604 -0.45638105 0.38853216 0.005499358 0.04602839
-0.5419973 0.64463276 -0.32225582 -0.3013018 -0.07263315 -0.5166965 -0.34096664 -0.33670598
-0.1492862 -1.8918731 0.65972066 -1.5797614 -0.2453765 -0.10498374 0.93601525 -0.13075678
-0.55611897 0.1602232 -0.08275878 0.074758776 0.59830755 -1.0345181 0.47852322 -1.0784138
00000000: e3e0 ce3e f856 04c0 71fe a0bf 8771 bf3e
00000010: eee4 2ebf f51c 18bd 2238 03c0 fd4a c63c
00000020: c37d b2bf 3198 a23d 912f 303e baba a4be
00000030: ccf1 b6bd 3ce8 1fbf eb1f c23d 54e1 8ebe
00000040: 627b 93be 0958 8c3e fc8c 8c3e e74f 023e
00000050: a318 c4bf bb6c 0a3e 88c3 473e a2d1 e13f
00000060: ae92 913e 1844 223e a1eb 82bf a12e b4bf
00000070: 822f e5bd 319c 45be 4b93 0e3e 464c 0ebe
00000080: 301e 273f 4891 90bd 463a 98bd 3bcf d13d
00000090: c7aa e9be b0ed c63e f533 b43b 4488 3c3d
000000a0: 56c0 0abf a706 253f b7fe a4be 3b44 9abe
000000b0: b0c0 94bd 3946 04bf 2e93 aebe ba64 acbe
000000c0: 7bde 18be e628 f2bf 74e3 283f 9f35 cabf
000000d0: fa43 7bbe b701 d7bd b29e 6f3f 1be5 05be
000000e0: d05d 0ebf 8d11 243e 6f7d a9bd 211b 993d
000000f0: af2a 193f 176b 84bf ff00 f53e 7709 8abf
