model.pth (torch, 671669 bytes, 13 tensors)

weight f4 [256, 580]
-0.06864241 -0.17363983 -0.21743852 0.5006677 -0.05733784 0.3104017 -0.021586303 -0.09047736
-0.021116948 -0.07925369 0.086621456 -0.20370768 -0.41224787 -0.07446541 0.10956358 0.13383426
-0.38118643 0.021885814 -0.38165754 -0.33614892 0.04982851 -0.26109093 -0.08475693 0.18443045
0.14485902 0.25321832 0.22063312 0.2004515 0.16998047 0.16524255 0.11369706 0.09712598
0.055224087 0.08256357 0.04907681 0.03835356 0.12312805 0.017433673 -0.03851148 -0.02675888
4.3634906 3.7438004 3.3163474 3.334009 2.7837567 2.9418437 2.2521882 1.9033961
1.5314043 1.4588132 1.1397151 0.9725336 0.8226337 0.13574827 0.766141 0.6081759
0.3211897 0.31592068 0.32751253 -0.016011503 -0.038823746 -0.094066665 -0.18396442 -0.15935628
-0.070656955 -0.005242644 0.06728202 0.07035657 -0.07279077 0.006417083 -0.051180907 -0.013221701
-0.038750898 -0.04467912 -0.014049424 -0.002884404 0.0014822223 -0.02331183 -0.02836145 -0.01568488
0.011045393 0.057502978 0.057704166 0.0804665 0.08914167 0.11742104 0.135587 0.1662079
0.079043314 0.084297724 0.044485305 0.03455599 0.030055515 0.009377423 -0.04809379 -0.068658784
-0.037006285 -0.08734031 -0.07202677 -0.06468518 -0.03618448 -0.0015969415 -0.05027443 0.0011218401
-0.08948337 -0.04758469 -0.065135166 -0.009435024 -0.038893912 -0.00799216 -0.035806634 0.007150247
-0.016362589 0.0020073517 0.076547824 -0.019789105 0.033652812 0.06382787 0.053925075 -0.006322982
-0.022687875 -0.074824974 0.076676205 0.06699019 0.07724785 -0.01912811 -0.011999843 0.04171643
0.017715316 -0.03421478 -0.05918131 -0.016360838 -0.0027120006 -0.0036319338 0.0051518898 0.0027076434
-0.030346569 -0.02656882 -0.034037977 -0.03625974 -0.03810678 0.02999789 -0.053088613 -0.05144219
-0.013075856 0.020412248 0.08473714 0.032118578 -0.019214427 -0.024994906 -0.04917132 0.005122348
-0.02088518 0.027200071 -0.0085569145 0.027627058 0.0006493825 -0.010569501 -0.070357524 -0.042509988
-0.004098504 0.023035226 -0.04232422 -0.012379159 0.03717706 -0.009014369 0.074327044 0.00884017
-0.0378237 0.027081937 -0.00066705263 0.04122569 0.055524077 -0.023409812 -0.0038564107 -0.054739866
-0.040890258 0.0014110588 0.003215937 0.035349276 -0.054820005 0.040803187 -0.07252356 -0.051463094
-0.0012981439 0.034199387 0.04753591 -0.057619035 0.002888653 0.04970955 -0.023705035 -0.07985945
-0.09410654 0.07303362 -0.10289083 -0.081833534 -0.103644535 0.032531943 -0.03232406 -0.061825395
-0.04923308 -0.05280584 -0.05361008 -0.017898394 -0.008980175 -0.043492243 0.009276365 -0.033247326
0.024245141 -0.025071261 -0.0074343677 -0.036475543 -0.061382096 -0.03056499 0.0017715208 0.047387164
0.027606525 0.09644072 0.048585 0.09432982 0.07557968 0.03407087 -0.017791143 -0.048077952
0.010971067 0.04458099 0.05055083 0.03154633 -0.077881806 0.017535262 -0.01887891 0.02710549
0.054512087 0.01263375 0.0723427 0.010855676 -0.0141664315 -0.008593429 0.023120664 -0.063226
-0.025446158 0.0071061617 0.0007347488 0.020044355 0.07965816 0.026991388 0.061678812 -0.06273903
-0.06561023 0.031213382 0.005511547 -0.034806505 -0.0009954858 -0.011805746 -0.048657767 0.031754043
00000000: 6494 8cbd a4ce 31be 34a8 5ebe c22b 003f
00000010: 15db 6abd f9ec 9e3e c2d5 b0bc 324c b9bd
00000020: 73fd acbc c24f a2bd 9766 b13d bf98 50be
00000030: 2712 d3be 5281 98bd df62 e03d d90b 093e
00000040: de2a c3be e149 b33c 9e68 c3be b61b acbe
00000050: fb18 4c3d b6ad 85be 0b95 adbd 56db 3c3e
00000060: ec55 143e d5a5 813e a6ed 613e 2843 4d3e
00000070: 5c0f 2e3e 5835 293e 01da e83d fce9 c63d
00000080: a732 623d 1717 a93d c404 493d 9f18 1d3d
00000090: 8f2a fc3d 10d1 8e3c 37be 1dbd 7035 dbbc
000000a0: b7a1 8b40 6d9a 6f40 093f 5440 6760 5540
000000b0: 1229 3240 2b47 3c40 da23 1040 7ca2 f33f
000000c0: 0e05 c43f 64ba ba3f 2fe2 913f f6f7 783f
000000d0: 1f98 523f 9801 0b3e d121 443f 6ab1 1b3f
000000e0: fa72 a43e 5bc0 a13e b9af a73e 8e2a 83bc
000000f0: a605 1fbd 06a6 c0bd 2b61 3cbe 4b2e 23be
00000100: 98b4 90bd 7cca abbb 28cb 893d 1b17 903d
00000110: 5413 95bd 6546 d23b 12a3 51bd d59f 58bc
00000120: 43b9 1ebd 7401 37bd 8e2f 66bc 4508 3dbb
00000130: 2147 c23a 73f8 bebc 4656 e8bc 947d 80bc
00000140: bcf7 343c 3e88 6b3d 345b 6c3d 9fcb a43d
00000150: e88f b63d 717a f03d 52d7 0a3e 6732 2a3e
00000160: 76e1 a13d 49a4 ac3d 3936 363d 958a 0d3d
00000170: fc36 f63c c3a3 193c fefd 44bd fa9c 8cbd
00000180: e793 17bd 7adf b2bd c582 93bd aa79 84bd
00000190: 2d36 14bd 7750 d1ba 90ec 4dbd b50a 933a
000001a0: 0f43 b7bd 2ae8 42bd 9665 85bd 5c95 1abc
000001b0: 394f 1fbd 8cf1 02bc faa9 12bd 9f4c ea3b
000001c0: d60a 86bc c68d 033b 1bc5 9c3d c31c a2bc
000001d0: 88d7 093d 30b8 823d 8ae0 5c3d 0431 cfbb
000001e0: ecdb b9bc d63d 99bd 6a08 9d3d 2732 893d
000001f0: 1f34 9e3d 8eb2 9cbc fd9a 44bc d9de 2a3d
00000200: b61f 913c cc24 0cbd 1a68 72bd 2a07 86bc
00000210: d2bb 31bb bd05 6ebb 2fd1 a83b b872 313b
00000220: 5e99 f8bc dba6 d9bc 686b 0bbd 1885 14bd
00000230: db15 1cbd 23be f53c 7273 59bd 0cb5 52bd
00000240: 1d3c 56bc 9637 a73c aa8a ad3d c58e 033d
00000250: 9367 9dbc 1ec2 ccbc de67 49bd 5fd9 a73b
00000260: 6617 abbc afd2 de3c 4d32 0cbc 2452 e23c
00000270: 523b 2a3a b32b 2dbc 9b17 90bd f41e 2ebd
00000280: be4c 86bb 5fb4 bc3c 295c 2dbd f5d1 4abc
00000290: f946 183d 01b1 13bc c738 983d 5cd6 103c
000002a0: 06ed 1abd f0da dd3c 25dd 2eba 45dc 283d
000002b0: 376d 633d efc5 bfbc d6bb 7cbb e936 60bd
000002c0: 8b7c 27bd 47f3 b83a 78c2 523b 67ca 103d
000002d0: f18a 60bd 3e21 273d 3b87 94bd f7ca 52bd
000002e0: 7b26 aaba a814 0c3d 04b5 423d f001 6cbd
000002f0: 8e4f 3d3b 3e9c 4b3d 1031 c2bc 5a8d a3bd
00000300: eeba c0bd a792 953d 6db8 d2bd 5798 a7bd
00000310: 9643 d4bd 3740 053d 3c66 04bd a03c 7dbd
00000320: a0a8 49bd f04a 58bd 3e96 5bbd a79f 92bc
00000330: 9521 13bc ec24 32bd e5fb 173c 592e 08bd
00000340: bf9d c63c 3f62 cdbc ff9b f3bb 6167 15bd
00000350: cb6b 7bbd 6e63 fabc 6032 e83a 0b19 423d
00000360: 1427 e23c b682 c53d 1101 473d fe2f c13d
00000370: 85c9 9a3d e68d 0b3d bbbe 91bc 63ed 44bd
00000380: fdbf 333c 8e9a 363d 630e 4f3d b936 013d
00000390: 7f80 9fbd 1ca6 8f3c f2a7 9abc 550c de3c
000003a0: 1148 5f3d cafd 4e3c 6928 943d 01dc 313c
000003b0: 521a 68bc 74cb 0cbc 8c67 bd3c a27c 81bd
000003c0: 7674 d0bc ceda e83b 289c 403a 0f34 a43c
000003d0: d123 a33d 0b1d dd3c eca2 7c3d 527d 80bd
000003e0: a85e 86bd 35b3 ff3c 359a b43b 4491 0ebd
000003f0: f67a 82ba e36c 41bc 5e4d 47bd 8710 023d

bias f4 [256]
-0.0052487776 0.028580938 0.015435948 -0.024963435 0.017130276 -0.007577391 -0.00469265 0.024981044
0.008770997 0.004131694 0.0126209995 -0.0016877411 -0.015784789 0.007890783 -0.018224454 0.015048019
-0.016273968 -0.002169736 0.032316845 0.009975316 0.03100088 0.00079457107 -0.012069204 -0.015138047
0.0050396025 -0.018708311 -0.008640844 -0.026605006 -0.018019315 0.011910284 0.03831918 -0.02224154
-0.0033126439 0.032663208 -0.022436952 0.03954638 0.018919518 0.0065780403 -0.008703752 0.024479637
0.038226835 0.037030444 0.01250774 -0.003338034 0.028075177 -0.0072248084 -0.027254915 0.03378951
0.039609574 0.015139852 -0.0075886166 0.0018077969 0.0011621786 0.008544765 -0.040591177 -0.013028166
0.02230019 -0.029468741 -0.030833248 0.04035591 0.0006841625 -0.01752407 0.0074455976 0.008522798
-0.010362593 0.005952588 0.003292736 -0.016234145 0.0074222586 -0.012420492 0.03484587 -0.008548072
-0.007984883 -0.039826967 0.039467677 0.016274579 0.007703648 -0.007009816 0.02433736 0.018931875
-0.031599905 -0.029045284 0.03782235 0.007663927 0.002342662 0.0067217425 0.02033802 -0.00881147
0.0028459665 -0.006137149 -0.003160486 -0.0068700253 0.0018601544 -0.034955557 0.021187374 -0.014872648
0.023383034 -0.022716915 -0.038100895 -0.010628876 0.038294733 -0.011174929 -0.016466396 -0.02925296
-0.021335768 0.034088325 -0.008292022 0.010831476 -0.027443895 0.00787032 -0.037104893 -0.006407866
-0.03857698 0.031992294 -0.032899648 -0.03229853 0.037301857 -0.039737336 0.010740501 0.016129892
0.034076996 -0.0014491865 -0.036180485 -0.002814178 -0.022501862 0.04023631 -0.012676236 0.027589547
0.024645729 -0.0059970994 -0.012398984 0.014316276 0.028901145 -0.0095791565 -0.040843368 -0.005826002
-0.014833035 -0.024018364 -0.010666511 0.037818857 -0.028117115 -0.0062200706 0.034603834 -0.008717523
0.028923204 0.041377477 0.024292959 -0.001261576 0.00094711786 -0.0351973 -0.037199628 0.020127669
0.01983179 -0.01465361 0.01113088 0.0011911651 -0.007981543 -0.024089534 -0.007216314 0.039795984
0.01790526 0.016263802 0.0031249132 -0.007418939 0.010345191 0.019821377 0.0349244 -0.008121259
-0.030885262 -0.030141175 -0.0068735657 -0.02454401 0.02313772 0.0013645233 0.0075355624 0.017193787
-0.010138685 0.039054587 0.01892752 -0.01905259 -0.024996698 0.015337017 0.0178811 -6.812448e-05
0.022516984 -0.018457774 -0.015578391 0.014321293 -0.0062312353 -0.028052768 0.02951177 0.0027892932
0.006297 -0.015569289 0.00472992 -0.01255515 -0.039734155 -0.002087748 0.0064712777 -0.02334989
-0.006708805 -0.014636196 0.019654097 0.0069631697 -0.005420378 -0.039605197 0.009426721 0.033212963
0.031874787 0.039300904 0.01593187 0.03595539 -0.020733884 0.028849855 -0.030747999 -0.023077765
0.035887174 0.003911839 -0.01480452 -0.020474883 0.0006805721 -0.026580852 0.038667705 0.012264088
0.0010809647 0.01877444 0.03317159 -0.017428612 0.039987586 0.028740618 -0.004676244 -0.0009662129
-0.01629021 0.03538396 -0.03367977 0.0077816774 -2.1493406e-05 -0.006345014 -0.0045033274 -0.0009174366
-0.041551236 -0.0051439805 0.0067668175 0.03346209 -0.030352928 0.023659587 0.012924008 0.0216328
0.0006986448 -0.038438056 -0.03402204 -0.010609229 -0.010257538 0.01705122 0.0023298722 0.041316796
00000000: f0fd abbb 9222 ea3c 0fe7 7c3c 1e80 ccbc
00000010: cb54 8c3c c34b f8bb cdc4 99bb 0ca5 cc3c
00000020: 3ab4 0f3c 2963 873b 4fc8 4e3c 3237 ddba
00000030: 1a4f 81bc 5848 013c 734b 95bc f78b 763c
00000040: fc50 85bc 2132 0ebb ab5e 043d 826f 233c
00000050: 8ff5 fd3c c34a 503a e9bd 45bc 9205 78bc
00000060: 4023 a53b 2c42 99bc 5492 0dbc bef2 d9bc
00000070: 3e9d 93bc 5a23 433c 93f4 1c3d e433 b6bc
00000080: f118 59bb dbc9 053d b3cd b7bc 63fb 213d
00000090: 1bfd 9a3c 9a8c d73b 2f9a 0ebc 8589 c83c
000000a0: be93 1c3d 3cad 173d 44ed 4c3c ebc2 5abb
000000b0: eafd e53c 16be ecbb b345 dfbc df66 0a3d
000000c0: a63d 223d 240d 783c eea9 f8bb 99f3 ec3a
000000d0: 3e54 983a 58ff 0b3c ef42 26bd 1774 55bc
000000e0: e3ae b63c 6e68 f1bc 0296 fcbc 3d4c 253d
000000f0: 5e59 333a a38e 8fbc 33fa f33b 35a3 0b3c
00000100: dec7 29bc ed0d c33b f1ca 573b 78fd 84bc
00000110: 6b36 f33b 527f 4bbc 8bba 0e3d 360d 0cbc
00000120: 07d3 02bc 9a21 23bd dca8 213d 4452 853c
00000130: e26e fc3b 99b2 e5bb 255f c73c 0517 9b3c
00000140: e76e 01bd 60f0 edbc 9ceb 1a3d ae21 fb3b
00000150: 5987 193b 1042 dc3b eb9b a63c fc5d 10bc
00000160: 6583 3a3b 231a c9bb 2820 4fbb f31d e1bb
00000170: 6dd0 f33a 8f2d 0fbd 2591 ad3c 68ac 73bc
00000180: c78d bf3c d318 babc af0f 1cbd bd24 2ebc
00000190: f0da 1c3d 0d17 37bc 89e4 86bc e7a3 efbc
000001a0: 59c8 aebc 33a0 0b3d 43db 07bc 8176 313c
000001b0: 05d2 e0bc 84f2 003c 4dfb 17bd 13f9 d1bb
000001c0: e502 1ebd 5a0a 033d c8c1 06bd 774b 04bd
000001d0: d5c9 183d 9ec3 22bd edf8 2f3c d622 843c
000001e0: 5294 0b3d a1f2 bdba fd31 14bd 126e 38bb
000001f0: d355 b8bc d4ce 243d fdaf 4fbc 7903 e23c
00000200: d7e5 c93c 5183 c4bb 1c25 4bbc d08e 6a3c
00000210: 18c2 ec3c e5f1 1cbc 604b 27bd 0ce8 bebb
00000220: 4206 73bc 29c2 c4bc 97c2 2ebc f2e7 1a3d
00000230: dd55 e6bc bcd1 cbbb c0bc 0d3d f1d3 0ebc
00000240: 5bf0 ec3c 6e7b 293d 0702 c73c 775b a5ba
00000250: 0148 783a 0b2b 10bd a35e 18bd c8e2 a43c
00000260: 4776 a23c b215 70bc 4b5e 363c de20 9c3a
00000270: 05c5 02bc 6a57 c5bc d476 ecbb 1d01 233d
00000280: 0dae 923c aa3b 853c 58cb 4c3b 921a f3bb
00000290: e07e 293c 7160 a23c e30c 0f3d 070f 05bc
000002a0: 1703 fdbc a0ea f6bc a63b e1bb 8510 c9bc
000002b0: 518b bd3c ced9 b23a e1ec f63b fcd9 8c3c
000002c0: ba1c 26bc b4f7 1f3d e30d 9b3c 2d14 9cbc
000002d0: e0c5 ccbc 1d48 7b3c 627b 923c 0dde 8eb8
000002e0: 8a75 b83c c234 97bc 823c 7fbc dba3 6a3c
000002f0: 642f ccbb ebce e5bc abc2 f13c 93cc 363b
00000300: 1157 ce3b 5516 7fbc 72fd 9a3b 1eb4 4dbc
00000310: 48c0 22bd 99d2 08bb 030d d43b 4548 bfbc
00000320: 89d5 dbbb a8cc 6fbc a101 a13c 4d2b e43b
00000330: 6d9d b1bb 0f39 22bd 8972 1a3c 510a 083d
00000340: 238f 023d fcf9 203d 8e83 823c f645 133d
00000350: 1bda a9bc 8856 ec3c 3ae3 fbbc 950d bdbc
00000360: 6efe 123d e22e 803b a88e 72bc f1ba a7bc
00000370: 6c68 323a 16c0 d9bc 0762 1e3d 50ef 483c
00000380: 28af 8d3a dbcc 993c efde 073d 73c6 8ebc
00000390: 06ca 233d 7271 eb3c 2e3b 99bb 7349 7dba
000003a0: 0c73 85bc c5ee 103d ccf3 09bd 71fd fe3b
000003b0: bd4c b4b7 d6e9 cfbb a690 93bb 2180 70ba
000003c0: a131 2abd d68e a8bb 2ebc dd3b 8b0f 093d
000003d0: b4a6 f8bc c0d1 c13c 38bf 533c 4537 b13c
000003e0: 4225 373a 3971 1dbd b25a 0bbd 55d2 2dbc
000003f0: 3c0f 28bc 00af 8b3c c5b0 183b cd3b 293d

weight f4 [256]
1.0233365 0.95503 1.0086355 1.0630697 1.044842 0.9864975 1.0188961 0.9393522
0.96786517 0.95312923 1.0003688 0.9720293 0.94368863 0.98728883 0.97981733 1.0029112
0.98105747 1.0063509 0.9848801 1.0043739 0.9749379 1.0474777 1.0380818 0.98944753
0.99701023 1.0773191 0.98943967 0.9519815 1.0123377 1.0330919 0.98308635 1.0584899
1.02875 0.9944634 0.99325895 0.9966749 0.9915623 0.97941643 0.95570457 1.0690396
1.0344858 1.0060925 0.9850241 1.0050794 1.0104387 1.0183163 0.99263567 1.0397844
0.95304084 0.98007333 1.0394132 1.0501902 1.0096694 0.96987206 0.9547708 0.93828505
0.94608134 1.0629267 1.03209 0.95270365 1.0088373 1.0138233 1.0819396 0.9775837
0.99894595 0.97026205 1.0129331 0.998583 1.0009075 0.9648636 1.0203379 0.97372264
1.0364015 1.0161059 0.9596104 0.9957783 0.9727302 1.044608 0.94120723 0.91534245
0.9442321 0.9690829 1.1021887 1.0038921 0.92061955 1.0308653 0.9652713 0.97805697
0.9897036 1.1017643 0.9744833 0.9838671 0.9875214 1.0237395 1.0041467 1.0369723
1.0418184 0.9661851 0.9772894 0.98621815 1.0765966 1.0087342 1.0233068 1.0494573
0.966726 1.0089064 1.0296934 0.978681 0.9707251 1.037557 0.96374494 1.0300417
0.92530096 1.0101013 0.9811029 0.9833734 0.93494225 0.9863806 1.045428 0.9214681
0.976546 0.96700406 1.0293127 1.0090989 1.007542 1.0170342 1.0657034 0.9720174
1.0244601 1.0212477 0.99812025 0.9535825 0.9280348 0.98598534 1.0075825 0.97564965
0.97564244 1.0772228 0.99313766 1.1181858 1.0005945 0.97559124 0.94947875 1.023669
1.0272955 0.97508186 1.0675752 0.9961238 1.0022058 1.0238107 1.0270752 0.9910365
0.95444316 0.9703784 1.0433888 0.98869026 0.93386793 1.0505961 1.0043905 0.9413899
1.1104666 1.0119759 1.0035576 1.0056349 1.0031332 0.9820459 1.000597 0.9987642
0.97884595 1.0011625 0.9875189 1.0152847 0.9255774 0.967825 1.0381931 0.9915194
0.9533548 0.9951735 0.96864694 1.0275291 0.9902564 0.93031174 1.058304 1.0346645
1.0059886 0.98954326 1.0303636 0.97648126 0.93542314 1.0340905 0.9902294 1.1063724
1.0385864 0.9738157 1.0207387 1.0336367 1.0163976 0.99851424 0.99417883 1.0294634
1.0171841 0.9397684 0.94851255 1.03597 0.91281945 0.9567034 0.9844016 0.9923359
1.0150354 0.8968029 1.050628 0.9260708 1.0292479 0.98630404 1.0197312 0.97190225
0.9988731 0.95611674 1.0108941 0.9374776 0.9665433 1.0212032 0.93576914 0.9792563
0.9993206 1.0572588 1.0015916 1.0377754 1.0034915 1.0499254 1.0168935 1.0362995
0.9836767 1.0165896 0.96665543 1.0508256 1.0055449 1.0385756 0.9805649 1.0587064
0.9965414 1.0040293 0.97716755 1.0448492 1.0573514 1.0083969 1.0001436 1.0676149
0.94841146 0.999314 0.9536242 1.0084683 1.0104611 0.9239463 0.9959399 1.067104
00000000: b1fc 823f d97c 743f f81a 813f ab12 883f
00000010: 62bd 853f 1a8b 7c3f 306b 823f 6379 703f
00000020: 03c6 773f 4700 743f 160c 803f ead6 783f
00000030: 9495 713f f6be 7c3f 4fd5 7a3f 655f 803f
00000040: 9526 7b3f 1bd0 803f 1a21 7c3f 538f 803f
00000050: 8895 793f c013 863f dddf 843f 6f4c 7d3f
00000060: 103c 7f3f 98e5 893f eb4b 7d3f 0fb5 733f
00000070: 4894 813f 5b3c 843f 8cab 7b3f 997c 873f
00000080: 14ae 833f 2795 7e3f 3846 7e3f 1626 7f3f
00000090: 07d7 7d3f 09bb 7a3f 0ea9 743f 4ad6 883f
000000a0: 086a 843f a4c7 803f 8a2a 7c3f 71a6 803f
000000b0: 0e56 813f 3058 823f 5f1d 7e3f a817 853f
000000c0: 7cfa 733f 16e6 7a3f 7e0b 853f a26c 863f
000000d0: d93c 813f 8949 783f dc6b 743f 7333 703f
000000e0: 6332 723f fb0d 883f 861b 843f 63e4 733f
000000f0: 9521 813f f6c4 813f ff7c 8a3f ed42 7a3f
00000100: ecba 7f3f 1863 783f cba7 813f 23a3 7f3f
00000110: bd1d 803f 4d01 773f 6f9a 823f e345 793f
00000120: cea8 843f c20f 823f 07a9 753f 54eb 7e3f
00000130: d904 793f b7b5 853f f5f2 703f e253 6a3f
00000140: 32b9 713f d115 783f 8514 8d3f 897f 803f
00000150: b9ad 6b3f 65f3 833f 051c 773f f161 7a3f
00000160: 375d 7d3f 9d06 8d3f bd77 793f b7de 7b3f
00000170: 34ce 7c3f e509 833f e187 803f 82bb 843f
00000180: 4e5a 853f e857 773f a32f 7a3f cb78 7c3f
00000190: ebcd 893f 341e 813f b8fb 823f 9e54 863f
000001a0: 5b7b 773f d823 813f fecc 833f d78a 7a3f
000001b0: 7181 783f abce 843f fdb7 763f 68d8 833f
000001c0: 86e0 6c3f 004b 813f 8f29 7b3f 5cbe 7b3f
000001d0: 6058 6f3f 7083 7c3f 96d0 853f 55e5 6b3f
000001e0: ebfe 793f 948d 773f 85c0 833f 272a 813f
000001f0: 23f7 803f 2d2e 823f f868 883f 22d6 783f
00000200: 8221 833f 3fb8 823f cf84 7f3f fc1d 743f
00000210: b093 6d3f 8969 7c3f 77f8 803f 2dc4 793f
00000220: b4c3 793f 70e2 893f 453e 7e3f b620 8f3f
00000230: 7b13 803f 59c0 793f 0a11 733f 9607 833f
00000240: 6b7e 833f f79e 793f 4ea6 883f f801 7f3f
00000250: 4848 803f 3b0c 833f 3377 833f 91b4 7d3f
00000260: 6356 743f b86a 783f c48d 853f ce1a 7d3f
00000270: f811 6f3f ef79 863f de8f 803f eefe 703f
00000280: c523 8e3f 6d88 813f 9374 803f a5b8 803f
00000290: ab66 803f 5c67 7b3f 9013 803f 03af 7f3f
000002a0: a695 7a3f 1826 803f 0ace 7c3f d9f4 813f
000002b0: a4f2 6c3f 61c3 773f 83e3 843f 37d4 7d3f
000002c0: 0f0f 743f b1c3 7e3f 3ff9 773f 1386 833f
000002d0: 7281 7d3f e928 6e3f 8176 873f e36f 843f
000002e0: 3cc4 803f b552 7d3f f4e2 833f adfa 793f
000002f0: e477 6f3f 145d 843f ad7f 7d3f 9c9d 8d3f
00000300: 66f0 843f fc4b 793f 91a7 823f 354e 843f
00000310: 5119 823f a19e 7f3f 8182 7e3f 75c5 833f
00000320: 1733 823f a994 703f b8d1 723f aa9a 843f
00000330: 89ae 693f 84ea 743f be01 7c3f ba09 7e3f
00000340: aeec 813f e094 653f fa7a 863f fa12 6d3f
00000350: 65be 833f 6c7e 7c3f 8d86 823f 96ce 783f
00000360: 26b6 7f3f 11c4 743f fa64 813f 88fe 6f3f
00000370: 626f 773f c9b6 823f 918e 6f3f 8ab0 7a3f
00000380: 7ad3 7f3f 4254 873f 2734 803f d3d5 843f
00000390: 6972 803f f563 863f 9129 823f 76a5 843f
000003a0: 3cd2 7b3f 9c1f 823f bb76 773f 7481 863f
000003b0: b2b5 803f 0cf0 843f 4d06 7b3f b183 873f
000003c0: 561d 7f3f 0884 803f a727 7a3f 9ebd 853f
000003d0: 4a57 873f 2613 813f b504 803f 9ba7 883f
000003e0: 18cb 723f 0bd3 7f3f b720 743f 7d15 813f
000003f0: ca56 813f bf87 6c3f ebf5 7e3f dd96 883f

bias f4 [256]
-0.029573487 -0.11510678 -0.05282634 -0.15833488 -0.050722208 -0.074941516 -0.044845007 -0.071114905
-0.05330204 -0.12120323 -0.07373754 -0.030166104 -0.02431218 -0.05808037 -0.1262312 -0.043452915
-0.20665908 -0.088316195 -0.11750875 -0.07854935 -0.075217746 -0.09899892 -0.114016466 -0.098986804
-0.06250095 -0.1029085 -0.22510114 -0.13597247 -0.06030655 -0.12842031 -0.06626711 -0.06410061
-0.04375633 -0.22565413 -0.11233658 -0.050399646 -0.049687162 -0.17922884 0.029208373 -0.011841831
-0.069844656 -0.20349583 -0.17345583 0.047705814 -0.12529933 0.019585675 -0.06921565 -0.050911017
-0.2971362 -0.05326615 -0.107270695 -0.033740588 -0.07887692 -0.116118684 -0.12435495 -0.13592242
0.011158037 -0.13657632 -0.049963143 -0.06330091 -0.0054839803 -0.20031561 0.026504828 -0.11798775
-0.04776687 -0.054354772 -0.08838597 -0.12550445 -0.03078659 -0.16039944 -0.114524856 -0.1411314
-0.07370943 -0.17584744 -0.031340383 -0.036925748 -0.04699745 -0.050790753 -0.15563591 -0.23735078
-0.16185707 -0.14955334 -0.057450064 -0.16267899 -0.033000678 -0.13118763 0.011015896 -0.0043262937
-0.06687984 -0.022142107 -0.24501638 -0.08970768 -0.040626824 0.028799934 -0.033447634 -0.15311237
-0.09345522 -0.086867616 0.01765095 -0.1334502 -0.06878905 -0.12853502 -0.12518889 -0.117816165
-0.0743343 0.024398813 -0.006722394 -0.015140213 -0.014304833 -0.21327394 -0.10235575 -0.16834326
0.035816662 0.05344275 0.04151381 -0.017761253 -0.019164607 -0.0030743144 -0.06672943 0.03347023
-0.07539907 -0.12104938 -0.04227065 -0.091636606 -0.039585814 -0.06412162 -0.21753196 -0.09157043
-0.12219708 0.026596595 -0.14039971 -0.09622226 -0.10308857 -0.13510887 -0.07281733 -0.0889857
-0.29723164 -0.15312293 0.03242454 -0.18042348 -0.17059208 -0.18441863 -0.19884956 -0.14109865
-0.074317396 -0.1456759 -0.007469054 -0.06551995 -0.17980224 -0.08092974 -0.058130007 -0.04916497
-0.06852134 -0.00041188847 -0.067626685 -0.093764946 -0.1265048 -0.08510869 -0.117915966 -0.04713956
-0.097189516 0.0022950605 -0.027170133 -0.031557962 0.07552413 -0.019709295 -0.13852775 -0.114773825
-0.030446049 0.022839017 -0.17170915 0.009818736 -0.29228392 -0.19327666 -0.0778646 0.03840969
-0.08912205 -0.19859266 -0.06583592 -0.13023527 -0.09890945 -0.13121995 -0.091805935 -0.14398135
0.02988193 -0.24094847 -0.16804858 -0.025658634 -0.115187034 -0.042644527 -0.11573245 -0.023922833
-0.018333666 -0.13769527 -0.14993398 -0.10432764 -0.038087897 -0.10732956 0.122170255 -0.05743142
-0.18166399 -0.048022185 -0.16180553 -0.10080356 -0.18147086 -0.17581789 -0.11964758 -0.08961466
-0.035996027 -0.15419668 0.021059725 -0.017864034 -0.037062977 -0.11833534 -0.04258239 -0.20481575
0.0009140971 -0.08564515 -0.04517981 -0.11236058 -0.19210897 -0.01728899 -0.020297224 0.103703335
-0.104325905 -0.09693413 -0.23692708 -0.12339913 -0.015149685 -0.08647139 -0.068255804 -0.041270465
-0.12206184 -0.16335802 -0.010582798 0.014982942 -0.008157044 -0.12134804 -0.082402915 -0.07724731
-0.11920981 -0.024212725 0.026145345 -0.09577077 -0.014682655 -0.07884287 0.033057112 -0.1540271
-0.10023371 -0.1569792 -0.041219153 -0.17159621 -0.0671406 -0.05069633 -0.046838503 -0.11130561
00000000: 1944 f2bc 1abd ebbd 6f60 58bd 8a22 22be
00000010: 17c2 4fbd f07a 99bd 66af 37bd b1a4 91bd
00000020: 3d53 5abd 6639 f8bd b503 97bd e81e f7bc
00000030: 562a c7bc afe5 6dbd c042 01be affb 31bd
00000040: 709e 53be 1fdf b4bd 6da8 f0bd 7bde a0bd
00000050: c30b 9abd f2bf cabd 7781 e9bd 98b9 cabd
00000060: 8000 80bd b1c1 d2bd ea80 66be 5e3c 0bbe
00000070: 0004 77bd 9d80 03be 0db7 87bd 2e47 83bd
00000080: d639 33bd e011 67be b910 e6bd dc6f 4ebd
00000090: c484 4bbd c487 37be 6646 ef3c 3d04 42bc
000000a0: b70a 8fbd 3661 50be 689e 31be 2c67 433d
000000b0: 784e 00be 2372 a03c efc0 8dbd 1288 50bd
000000c0: 3c22 98be 9b2d 5abd bdb0 dbbd 9233 0abd
000000d0: 398a a1bd a2cf edbd cfad febd 3f2f 0bbe
000000e0: 33d0 363c aada 0bbe 27a6 4cbd e8a3 81bd
000000f0: f6b2 b3bb 891f 4dbe a720 d93c 90a3 f1bd
00000100: 32a7 43bd 1ca3 5ebd b403 b5bd 3d84 00be
00000110: 2934 fcbc c03f 24be 028c eabd c084 10be
00000120: f8f4 96bd 5a11 34be c65e 00bd 743f 17bd
00000130: 6680 40bd f709 50bd 055f 1fbe 150c 73be
00000140: dcbd 25be 8324 19be c250 6bbd 5295 26be
00000150: b82b 07bd 0d56 06be 047c 343c 95c3 8dbb
00000160: 4cf8 88bd 5d63 b5bc 93e5 7abe a9b8 b7bd
00000170: 5068 26bd d7ed eb3c 6300 09bd 7dc9 1cbe
00000180: 7365 bfbd a6e7 b1bd ba98 903c 2ba7 08be
00000190: 46e1 8cbd af9e 03be 8431 00be 9a49 f1bd
000001a0: 953c 98bd 05e0 c73c 8747 dcbb a80e 78bc
000001b0: d15e 6abc 7c64 5abe e49f d1bd 2d62 2cbe
000001c0: 7eb4 123d c9e6 5a3d 630a 2a3d 0c80 91bc
000001d0: 18ff 9cbc 707a 49bb 70a9 88bd 1418 093d
000001e0: d46a 9abd bde8 f7bd fd23 2dbd f9ab bbbd
000001f0: bc24 22bd 3252 83bd b3c0 5ebe 4789 bbbd
00000200: 7642 fabd 1ae1 d93c f1c4 0fbe 2d10 c5bd
00000210: 1a20 d3bd fb59 0abe 4121 95bd 223e b6bd
00000220: bf2e 98be 42cc 1cbe 98cf 043d efc0 38be
00000230: b1af 2ebe 3dd8 3cbe 389f 4bbe 2a7c 10be
00000240: b833 98bd 102c 15be f7be f4bb 532f 86bd
00000250: 141e 38be 7ebe a5bd bb19 6ebd 3561 49bd
00000260: eb54 8cbd bcf2 d7b9 dc7f 8abd d607 c0bd
00000270: 798a 01be 774d aebd ed7d f1bd 6915 41bd
00000280: 4c0b c7bd ba68 163b e693 debc ec42 01bd
00000290: 65ac 9a3d 6375 a1bc 38da 0dbe 8a0e ebbd
000002a0: fe69 f9bc e418 bb3c 86d4 2fbe c4de 203c
000002b0: 3da6 95be 51ea 45be 7a77 9fbd 7b53 1d3d
000002c0: 9f85 b6bd e05b 4bbe fcd4 86bd 655c 05be
000002d0: 0a91 cabd 865e 06be c004 bcbd d96f 13be
000002e0: f3ca f43c 32bb 76be ed14 2cbe 0e32 d2bc
000002f0: 2ee7 ebbd 07ac 2ebd 2205 edbd d1f9 c3bc
00000300: 7c30 96bc fdff 0cbe 4b88 19be bba9 d5bd
00000310: 0e02 1cbd 9acf dbbd 6634 fa3d 353d 6bbd
00000320: 2006 3abe e9b2 44bd 59b0 25be 1972 cebd
00000330: 7fd3 39be 9b09 34be ca09 f5bd e487 b7bd
00000340: 9270 13bd bce5 1dbe 7285 ac3c 9857 92bc
00000350: 59cf 17bd cc59 f2bd df6a 2ebd 38bb 51be
00000360: 05a0 6f3a b966 afbd 770e 39bd 4e1d e6bd
00000370: 37b8 44be a4a1 8dbc 5d46 a6bc 6a62 d43d
00000380: d2a8 d5bd 6785 c6bd 039d 72be afb8 fcbd
00000390: 6236 78bc ea17 b1bd b3c9 8bbd 380b 29bd
000003a0: 8ffb f9bd 5347 27be 7963 2dbc 037b 753c
000003b0: 1fa5 05bc 5285 f8bd dcc2 a8bd d633 9ebd
000003c0: 4624 f4bd c459 c6bc c32e d63c 7723 c4bd
000003d0: 858f 70bc 5f78 a1bd e566 073d 48b9 1dbe
000003e0: 5547 cdbd 28bf 20be 6ad5 28bd ebb6 2fbe
000003f0: 0381 89bd f4a6 4fbd bbd9 3fbd 32f4 e3bd

running_mean f4 [256]
-213.63753 -123.02641 380.21234 -288.29483 -848.42175 -1120.7067 -1713.3179 57.042427
28.281113 175.92863 -95.980515 -766.0471 15.382571 331.1748 249.33675 -32.09427
782.2657 -554.869 -526.01575 508.9836 -183.309 -103.692444 674.76794 382.6451
-228.79549 -217.59808 615.0055 9.882046 -763.1124 490.61475 -630.58374 -380.3048
214.57715 1180.7587 342.96158 -126.29821 -154.79459 440.9979 -169.40833 -746.7753
-88.66318 371.37985 -382.31 -122.87417 382.71622 -186.84695 579.14935 -316.90164
403.40146 -455.21494 -548.8246 256.308 -554.16754 -422.72568 292.61935 178.3648
159.27695 517.39594 -14.793628 -705.20465 -950.5464 325.32483 -1372.4955 176.55446
-165.89406 1082.3802 358.28018 -216.00154 28.502968 -415.167 598.9995 177.38704
-835.5747 501.16257 -300.82394 -473.17697 406.50287 -540.7344 -311.274 7.181692
-494.5086 46.93144 -1036.2946 -298.3391 258.57285 -211.98796 250.00664 624.7413
582.0601 -1609.1412 690.1274 1504.2162 -456.34253 -1123.1841 -246.72452 295.4521
-400.32022 207.65662 -118.87033 303.64874 -912.0902 131.98323 -357.11624 -461.1374
-5.034638 -482.7562 -319.30087 -208.3215 -326.24103 -281.87494 -63.651237 645.4714
-72.470695 -352.43112 -309.09973 -1104.5193 -91.86398 331.689 1145.7798 -445.0186
535.2294 -489.2675 -43.92774 -423.72906 -25.15379 -363.86465 455.66217 384.95874
-266.7909 110.526566 -251.33286 -756.70123 -479.7375 -253.94672 -765.8625 758.7044
338.71704 134.42555 323.97562 282.26373 49.21738 435.9644 81.63045 53.237385
-17.64529 329.61743 -543.0273 326.91132 -24.58565 496.4996 -1156.0835 -308.62354
135.17577 -53.89601 102.66353 234.39937 927.70386 129.6671 364.77774 -6.431611
-1502.2786 -486.0238 -461.84598 -409.77435 -511.62173 -98.49454 1354.9849 -364.55328
-375.61633 -217.1468 81.026665 167.81381 752.1018 1224.2395 -166.4519 -735.97424
838.9119 -401.3921 1202.3423 778.44183 225.79897 630.3259 52.340412 -598.8273
-100.40311 563.0512 672.0564 -756.8005 -135.67072 235.26912 -3.8391964 -796.7898
-478.98364 -395.92313 -559.5745 99.06744 -1099.5597 -814.4312 -1440.4755 -8.155668
-624.15283 81.8938 -526.63574 659.6926 -550.9703 87.863014 357.06384 -85.34224
-383.95462 131.11798 -852.69806 652.2002 -193.38567 537.6677 -663.9618 1065.6554
1289.5663 422.45166 211.64005 -456.0176 -481.88644 -710.3972 157.16708 -217.14148
-1496.9702 281.14902 536.10675 -872.2986 818.34985 -872.4161 -237.28893 558.4205
-7.7727995 -323.9028 654.27136 939.02124 126.98939 221.47748 -454.30984 -593.6958
-15.528181 254.644 -611.6684 -718.0087 948.63525 625.7882 265.37296 717.87646
489.5354 -493.71323 -0.08528166 55.368134 -74.70229 -372.34296 293.6836 608.77936
00000000: 35a3 55c3 860d f6c2 2e1b be43 bd25 90c3
00000010: fe1a 54c4 9d16 8cc4 2c2a d6c4 722b 6442
00000020: b83f e241 bbed 2f43 06f6 bfc2 0483 3fc4
00000030: 031f 7641 6096 a543 3556 7943 8860 00c2
00000040: 0191 4344 9eb7 0ac4 0281 03c4 e77d fe43
00000050: 1b4f 37c3 8862 cfc2 26b1 2844 9352 bf43
00000060: a5cb 64c3 1c99 59c3 5ac0 1944 dc1c 1e41
00000070: 32c7 3ec4 b04e f543 5ca5 1dc4 0427 bec3
00000080: c093 5643 4798 9344 157b ab43 af98 fcc2
00000090: 6acb 1ac3 bb7f dc43 8868 29c3 9fb1 3ac4
000000a0: 8c53 b1c2 9fb0 b943 ae27 bfc3 93bf f5c2
000000b0: ad5b bf43 d2d8 3ac3 8fc9 1044 6973 9ec3
000000c0: 63b3 c943 839b e3c3 c634 09c4 6d27 8043
000000d0: b98a 0ac4 e35c d3c3 474f 9243 645d 3243
000000e0: e646 1f43 5759 0144 b3b2 6cc1 194d 30c4
000000f0: f8a2 6dc4 94a9 a243 db8f abc4 f18d 3043
00000100: e1e4 25c3 2b4c 8744 dd23 b343 6500 58c3
00000110: 1406 e441 6095 cfc3 f8bf 1544 1563 3143
00000120: c8e4 50c4 cf94 fa43 7769 96c3 a796 ecc3
00000130: 5e40 cb43 002f 07c4 12a3 9bc3 6cd0 e540
00000140: 1a41 f7c3 cbb9 3b42 6d89 81c4 682b 95c3
00000150: 5349 8143 ebfc 53c3 b301 7a43 712f 1c44
00000160: d983 1144 8524 c9c4 2788 2c44 eb06 bc44
00000170: d82b e4c3 e465 8cc4 7ab9 76c3 deb9 9343
00000180: fd28 c8c3 18a8 4f43 9cbd edc2 0ad3 9743
00000190: c605 64c4 b5fb 0343 e18e b2c3 9691 e6c3
000001a0: c11b a1c0 cb60 f1c3 83a6 9fc3 4e52 50c3
000001b0: da1e a3c3 feef 8cc3 de9a 7ec2 2b5e 2144
000001c0: fff0 90c2 2f37 b0c3 c48c 9ac3 9e10 8ac4
000001d0: 5cba b7c2 31d8 a543 f438 8f44 6182 dec3
000001e0: aece 0544 3da2 f4c3 01b6 2fc2 52dd d3c3
000001f0: f63a c9c1 adee b5c3 c2d4 e343 b87a c043
00000200: 3c65 85c3 9a0d dd42 3655 7bc3 e12c 3dc4
00000210: 66de efc3 5cf2 7dc3 3377 3fc4 15ad 3d44
00000220: c85b a943 f16c 0643 e1fc a143 c221 8d43
00000230: 99de 4442 71fb d943 ca42 a342 15f3 5442
00000240: 8e29 8dc1 08cf a443 bfc1 07c4 a674 a343
00000250: 69af c4c1 f33f f843 ac82 90c4 d04f 9ac3
00000260: ff2c 0743 8495 57c2 ba53 cd42 3d66 6a43
00000270: 0ced 6744 c7aa 0143 8d63 b643 c2cf cdc0
00000280: eac8 bbc4 0c03 f3c3 49ec e6c3 1ee3 ccc3
00000290: 95cf ffc3 34fd c4c2 845f a944 d246 b6c3
000002a0: e4ce bbc3 9525 59c3 a70d a242 56d0 2743
000002b0: 8406 3c44 aa07 9944 b073 26c3 5afe 37c4
000002c0: 5dba 5144 30b2 c8c3 f44a 9644 479c 4244
000002d0: 89cc 6143 dc94 1d44 955c 5142 f2b4 15c4
000002e0: 64ce c8c2 47c3 0c44 9c03 2844 3b33 3dc4
000002f0: b4ab 07c3 e544 6b43 65b5 75c0 8c32 47c4
00000300: e87d efc3 29f6 c5c3 c5e4 0bc4 8722 c642
00000310: e971 89c4 999b 4bc4 370f b4c4 9e7d 02c1
00000320: c809 1cc4 a0c9 a342 b0a8 03c4 54ec 2444
00000330: 19be 09c4 ddb9 af42 2c88 b243 3aaf aac2
00000340: 31fa bfc3 341e 0343 ad2c 55c4 d00c 2344
00000350: bb62 41c3 bc6a 0644 8efd 25c4 f934 8544
00000360: 1f32 a144 d039 d343 daa3 5343 4102 e4c3
00000370: 77f1 f0c3 6c99 31c4 c62a 1d43 3824 59c3
00000380: 0c1f bbc4 1393 8c43 d506 0644 1c13 5ac4
00000390: 6496 4c44 a11a 5ac4 f749 6dc3 e99a 0b44
000003a0: c6ba f8c0 8ff3 a1c3 5e91 2344 5cc1 6a44
000003b0: 91fa fd42 3c7a 5d43 a927 e3c3 886c 14c4
000003c0: 6e73 78c1 dda4 7e43 c7ea 18c4 8f80 33c4
000003d0: a828 6d44 7272 1c44 bdaf 8443 1878 3344
000003e0: 88c4 f443 4bdb f6c3 27a8 aebd f878 5d42
000003f0: 9367 95c2 e62b bac3 80d7 9243 e131 1844

running_var f4 [256]
171581.45 287154.8 206216.0 61422.1 332329.38 387768.25 396699.16 108468.73
46140.355 109912.71 187273.22 211560.97 185842.94 131896.72 110101.086 92949.32
137662.25 156678.25 306216.38 123370.586 249285.55 423401.53 206237.4 102515.35
102848.305 389722.97 233591.75 148333.42 102306.5 134835.61 130582.734 116952.12
118902.8 312151.6 441898.0 182092.34 72724.555 154030.33 55931.19 144535.86
90063.33 93510.41 334376.66 123435.71 183741.3 93138.32 121258.55 196555.36
73493.305 125754.83 148897.45 164835.7 164655.31 86791.38 101233.8 51028.668
107611.34 129660.086 131268.34 293983.2 354330.7 103565.734 299383.44 98297.54
164782.56 522943.62 215819.81 348346.12 101373.36 148133.81 247049.16 271103.53
870905.25 105336.39 202459.19 281580.03 152315.34 279090.72 131098.06 98783.04
204188.47 109066.17 390073.22 222561.92 264821.4 48151.125 266891.97 164896.1
74656.12 325233.4 563249.8 855747.7 356198.75 1.6037226e+06 106359.0 31987.535
109699.984 149553.9 263714.7 82046.164 182705.81 176637.78 404354.03 87521.625
246051.52 181579.27 734953.75 183426.8 221127.95 214880.11 227762.33 106335.734
88649.19 138141.77 295502.7 187870.58 383023.1 90366.59 235946.12 157060.73
472030.78 88884.92 525280.0 71037.836 139556.12 946480.7 457534.06 113938.81
299597.12 165939.69 268816.66 179334.06 208784.72 116943.16 1.4792999e+06 157243.3
112906.59 208466.42 90087.7 380030.34 270381.9 244807.11 221452.64 152161.7
120336.36 197919.56 122893.93 194571.08 201319.66 410216.34 257250.11 336527.8
129280.1 102938.57 115403.11 157718.88 260330.33 142319.17 166393.4 94351.06
297259.66 815937.8 87395.85 450744.8 250712.08 234372.48 317138.4 147178.62
84548.33 558924.25 320759.56 388998.6 222131.58 125896.38 207292.77 258231.95
236887.39 81117.91 2.3208358e+06 148187.9 113507.62 185048.06 135506.66 238000.89
391046.28 131977.12 90403.7 188420.67 127748.24 151318.55 97541.14 125002.88
215131.56 108573.74 276911.44 57965.684 269462.16 148068.66 418118.22 379284.66
279985.88 50486.938 205858.31 142899.83 133268.88 133260.38 77352.24 48799.64
64809.562 58748.66 400328.8 94171.266 103539.555 240204.6 188777.06 537052.56
233805.38 109452.01 165764.7 165502.55 267513.28 111565.49 189083.81 245010.52
285100.75 108144.13 258964.94 442641.97 108188.54 470326.56 400036.9 81972.56
68992.58 516052.47 92829.734 108883.59 114290.984 230430.95 315293.84 149821.98
286848.88 164300.83 330940.53 609278.7 178970.45 80902.32 114710.73 342498.28
123979.266 484750.3 157041.77 129641.15 151236.84 158983.2 277976.3 142903.1
00000000: 5d8f 2748 5a36 8c48 0062 4948 1aee 6f47
00000010: 2c45 a248 0857 bd48 65b3 c148 5dda d347
00000020: 5b3c 3447 5bac d647 4ee2 3648 3e9a 4e48
00000030: bc7c 3548 2ece 0048 8b0a d747 a98a b547
00000040: 906f 0648 9001 1948 0c85 9548 4bf5 f047
00000050: 6371 7348 31bd ce48 5a67 4948 ad39 c847
00000060: 27e0 c847 5f4b be48 f01d 6448 5bdb 1048
00000070: 40d1 c747 e7ac 0348 5e0b ff47 0f6c e447
00000080: 663b e847 f36a 9848 40c5 d748 16d3 3148
00000090: 470a 8e47 956b 1648 317b 5a47 f725 0d48
000000a0: aae7 af47 34a3 b647 1545 a348 db15 f147
000000b0: 536f 3348 29e9 b547 46d5 ec47 d7f2 3f48
000000c0: a78a 8f47 6a9d f547 5d68 1148 edf8 2048
000000d0: d4cb 2048 b183 a947 e6b8 c547 ab54 4747
000000e0: ac2d d247 0b3e fd47 1631 0048 e68b 8f48
000000f0: 5603 ad48 de46 ca47 ee2e 9248 c5fc bf47
00000100: a4eb 2048 f457 ff48 f4c2 5248 4417 aa48
00000110: aefe c547 74a9 1048 4a42 7148 f15f 8448
00000120: 949f 5449 32bc cd47 ccb6 4548 817d 8948
00000130: d6be 1448 5746 8848 8406 0048 85ef c047
00000140: 1e67 4748 1605 d547 2777 be48 7b58 5948
00000150: ad4e 8148 2017 3c47 7f51 8248 0608 2148
00000160: 0fd0 9147 2dce 9e48 1d83 0949 3bec 5049
00000170: d8ec ad48 55c4 c349 80bb cf47 12e7 f946
00000180: fe41 d647 7a0c 1248 56c4 8048 153f a047
00000190: 746c 3248 727f 2c48 4170 c548 d0f0 aa47
000001a0: e148 7048 d152 3148 9c6e 3349 b320 3348
000001b0: fdf1 5748 07d8 5148 956c 5e48 deaf cf47
000001c0: 9824 ad47 71e7 0648 d649 9048 a577 3748
000001d0: e305 bb48 4c7f b047 886a 6648 2f61 1948
000001e0: d97b e648 769a ad47 003e 0049 ebbe 8a47
000001f0: 0849 0848 0b13 6749 c267 df48 6889 de47
00000200: a449 9248 ec0c 2248 1542 8348 8421 2f48
00000210: 2ee4 4b48 9467 e447 1f94 b449 d38e 1948
00000220: 4c85 dc47 9b94 4b48 daf3 af47 cb8f b948
00000230: bd05 8448 c711 6f48 2943 5848 6d98 1448
00000240: 2e08 eb47 e447 4148 f706 f047 c502 3e48
00000250: ea99 4448 0b4d c848 8738 7b48 fa51 a448
00000260: 0d80 fc47 490d c947 8e65 e147 b805 1a48
00000270: 953a 7e48 cbfb 0a48 5a7e 2248 8847 b847
00000280: 7525 9148 1d34 4749 edb1 aa47 1a17 dc48
00000290: 05d6 7448 1fe1 6448 4dda 9a48 a8ba 0f48
000002a0: 2a22 a547 c474 0849 f29e 9c48 d3f0 bd48
000002b0: e5ec 5848 31e4 f547 316f 4a48 fd2d 7c48
000002c0: d955 6748 f46e 9e47 0fa7 0d4a fab6 1048
000002d0: cfb1 dd47 04b6 3448 aa54 0448 396c 6848
000002e0: c9f0 be48 48e2 0048 da91 b047 2b01 3848
000002f0: 1f82 f947 a3c5 1348 9282 be47 7125 f447
00000300: e416 5248 df0e d447 ee35 8748 af6d 6247
00000310: c592 8348 2a99 1048 c728 cc48 9532 b948
00000320: 3cb6 8848 f036 4547 9408 4948 f58c 0b48
00000330: 3825 0248 1823 0248 1f14 9747 a49f 3e47
00000340: 9029 7d47 a97c 6547 1a79 c348 a2ed b747
00000350: c739 ca47 2693 6a48 445a 3848 c91d 0349
00000360: 5853 6448 01c6 d547 2de1 2148 a39f 2148
00000370: 299f 8248 bfe6 d947 f4a6 3848 a144 6f48
00000380: 9835 8b48 1138 d347 3ce5 7c48 3f22 d848
00000390: 454e d347 d2a6 e548 9d54 c348 481a a047
000003a0: 4ac0 8647 8ffa fb48 de4e b547 cca9 d447
000003b0: 7e39 df47 bd07 6148 bbf3 9948 7f4f 1248
000003c0: 1c10 8c48 3573 2048 9197 a148 ebbf 1449
000003d0: 9dc6 2e48 2903 9e47 5d0b e047 493c a748
000003e0: a225 f247 cab1 ec48 715c 1948 9334 fd47
000003f0: 36b1 1348 cd41 1b48 0abb 8748 c68d 0b48

weight f4 [64, 256]
0.018841272 -0.029364154 -0.024308808 -0.026685027 -0.018622356 0.051307358 0.028442329 0.05760103
-0.12427796 0.037620552 -0.083788574 -0.018972464 0.054178264 -0.04398754 0.09040126 0.080455124
0.028012069 -0.052503936 0.062148996 -0.023205886 0.032206956 -0.093920134 0.09347431 -0.0147191025
0.06840369 0.1124977 0.08097232 0.06889614 0.057685956 0.07291824 0.030518394 -0.030859143
0.064587176 0.025899164 -0.04573903 -0.012283773 -0.0037350832 -0.04748866 0.046119288 -0.012911671
0.09532395 0.06526872 0.07790568 -0.01176688 0.120016515 0.089155406 -0.06834927 -0.09341288
0.0509305 0.069225036 0.09263233 0.008995386 0.010925859 0.015762508 -0.09424824 0.04876909
-0.025633203 -0.04223032 0.007770493 0.007876849 -0.039652165 -0.019503323 -0.07064466 -8.45313e-06
-0.03546101 -0.006933549 0.010266539 0.1047469 0.052350312 -0.03847121 0.056013357 -0.09470973
0.021788515 -0.12013148 -0.01365283 0.017591076 0.027319018 0.02898076 -0.051441897 0.05636425
-0.03897359 0.12788959 0.11807391 0.012186485 -0.026416335 0.02281767 0.059062593 -0.01835129
-0.042256046 -0.013020327 -0.026735106 -0.021287242 0.01605967 0.07166511 -0.013121293 0.015373506
-0.12205902 0.057111755 -0.0057180817 -0.042079855 0.0066050533 0.043597694 -0.008192338 -0.019873315
-0.009459801 -0.053656653 0.07060336 -0.014490737 -0.05064018 -0.11771403 -0.11075385 -0.01402022
-0.07096847 0.012355601 0.035718217 0.012268181 0.04782974 -0.073809616 0.07062472 -0.0026176805
-0.03410263 -0.055812716 0.09361834 -0.038101032 0.028110899 -0.05557344 0.021950468 0.052178606
-0.1592904 0.018236125 -0.06456439 -0.0116406195 -0.03994527 0.058733195 0.024975443 0.015729
0.05012506 0.03118686 -0.0010227942 0.08137293 0.07643564 -0.031995986 -0.17528604 0.030783115
0.06545232 0.05744226 -0.054476194 0.01086787 -0.09878809 -0.008064607 0.019462438 0.048151333
0.091464095 -0.019479612 0.1476246 -0.0018528774 -0.017422583 0.0029878966 -0.022539113 0.071153045
0.047465246 0.0041978178 -0.0790826 -0.039388422 -0.06092865 0.0064742225 -0.00947891 0.053138357
-0.10448293 -0.024759736 0.09541071 -0.019702807 0.047649875 -0.12644115 0.015011872 -0.018668253
0.029051779 0.03200504 -0.0033282782 0.10159469 0.058946144 0.020174613 0.026113044 0.01571039
-0.059894666 0.07533233 -0.032516863 -0.04333465 0.092489265 -0.026538536 0.11889533 -0.081243806
-0.034779385 0.108254336 -0.097933665 -0.09053861 0.12289419 0.012146767 -0.04637951 -0.03706217
0.13623576 0.09761712 0.081873566 -0.006275512 -0.051644202 -0.09708528 0.010871261 0.029678892
0.021499513 -0.03661447 0.021108525 0.09573994 0.073153816 -0.020946193 0.034465145 -0.03997068
-0.0135083515 -0.01257325 0.036141966 -0.010178341 -0.0063787987 -0.019435558 0.094635144 -0.03430559
-0.014183733 -0.0073883706 -0.0873296 -0.05517075 0.020238351 0.032486364 0.03397293 -0.10755697
-0.09280118 -0.051207796 -0.087810956 0.048947558 -0.0004555086 0.004741794 -0.023532057 0.04351046
0.01783142 0.06298408 -0.030827329 0.08987639 0.072029576 0.067057066 -0.05621759 -0.120960586
-0.07303822 0.09724213 -0.030089715 0.08313206 0.16474582 0.030652406 -0.05767526 -0.006264866
00000000: 0359 9a3c 188d f0bc 4423 c7bc 8f9a dabc
00000010: e98d 98bc aa27 523d e3ff e83c 0fef 6b3d
00000020: 7185 febd 0218 1a3d 5899 abbd 246c 9bbc
00000030: 07ea 5d3d 472c 34bd 4c24 b93d a8c5 a43d
00000040: 9179 e53c 5e0e 57bd f28f 7e3d 451a bebc
00000050: 71eb 033d 3359 c0bd 766f bf3d 6428 71bc
00000060: 3c17 8c3d 3265 e63d d1d4 a53d 6b19 8d3d
00000070: 1c48 6c3d 2956 953d b601 fa3c 50cc fcbc
00000080: 4846 843d 7c2a d43c d958 3bbd e141 49bc
00000090: 4cc8 74bb 7883 42bd 94e7 3c3d 798b 53bc
000000a0: 3439 c33d 9bab 853d 038d 9f3d dfc9 40bc
000000b0: 38cb f53d 1c97 b63d b4fa 8bbd 414f bfbd
000000c0: 809c 503d dbc5 8d3d 05b6 bd3d 6261 133c
000000d0: 6002 333c 6020 813c 3905 c1bd 19c2 473d
000000e0: b9fc d1bc b3f9 2cbd 9f9f fe3b e60d 013c
000000f0: 4f6a 22bd 6fc5 9fbc 26ae 90bd ebd1 0db7
00000100: 903f 11bd d332 e3bb fc34 283c 8b85 d63d
00000110: 486d 563d fd93 1dbd 436e 653d 2df7 c1bd
00000120: d47d b23c 7e07 f6bd 1fb0 5fbc 291b 903c
00000130: 22cc df3c 0f69 ed3c bdb4 52bd 33de 663d
00000140: c5a2 1fbd 7df5 023e bcd0 f13d d3a9 473c
00000150: 1267 d8bc 1fec ba3c 9eeb 713d 7255 96bc
00000160: ad14 2dbd 3653 55bc 9503 dbbc 9562 aebc
00000170: 928f 833c 28c5 923d b1fa 56bc 28e1 7b3c
00000180: 14fa f9bd 04ee 693d bf5e bbbb ed5b 2cbd
00000190: 346f d83b 7f93 323d 2839 06bc 5dcd a2bc
000001a0: 48fd 1abc 14c7 5bbd 7f98 903d 8e6a 6dbc
000001b0: 146c 4fbd 0e14 f1bd ead2 e2bd 11b5 65bc
000001c0: eb57 91bd 266f 4a3c 444d 123d 7b00 493c
000001d0: 1ee9 433d 7f29 97bd b1a3 903d 648d 2bbb
000001e0: 33af 0bbd e09b 64bd f9ba bf3d d40f 1cbd
000001f0: d448 e63c faa0 63bd 78d1 b33c 3cb9 553d
00000200: 061d 23be ed63 953c 563a 84bd 4cb8 3ebc
00000210: a79d 23bd 3892 703d 4d99 cc3c 1bda 803c
00000220: ef4f 4d3d 967b ff3c 470f 86ba daa6 a63d
00000230: 4a8a 9c3d 390e 03bd 2f7e 33be df2c fc3c
00000240: de0b 863d 9348 6b3d 6e22 5fbd 270f 323c
00000250: 6951 cabd 6a21 04bc b16f 9f3c 553a 453d
00000260: 8751 bb3d b593 9fbc e72a 173e 40dc f2ba
00000270: ceb9 8ebc 96d0 433b f2a3 b8bc b0b8 913d
00000280: eb6a 423d d98d 893b 0ff6 a1bd c155 21bd
00000290: 5290 79bd b725 d43b 6e4d 1bbc 9ba7 593d
000002a0: 25fb d5bd eed4 cabc b166 c33d c867 a1bc
000002b0: 842c 433d ca79 01be 5bf4 753c 2aee 98bc
000002c0: fffd ed3c b817 033d 3e1f 5abb e010 d03d
000002d0: 8371 713d 3b45 a53c 06eb d53c 13b3 803c
000002e0: 1c54 75bd d647 9a3d 6730 05bd ad7f 31bd
000002f0: 036b bd3d 5867 d9bc 657f f33d 2763 a6bd
00000300: d474 0ebd 73b4 dd3d 7291 c8bd 4f6c b9bd
00000310: f3af fb3d 3c03 473c 71f8 3dbd 81ce 17bd
00000320: 6381 0b3e 7ceb c73d 54ad a73d cfa2 cdbb
00000330: df88 53bd a6d4 c6bd 601d 323c 2621 f33c
00000340: bf1f b03c 0ef9 15bd c9eb ac3c 4d13 c43d
00000350: abd1 953d 5a97 abbc 532b 0d3d 4cb8 23bd
00000360: 2252 5dbc 0800 4ebc 9909 143d 0ec3 26bc
00000370: 3e05 d1bb 5237 9fbc 12d0 c13d 0584 0cbd
00000380: e362 68bc 251a f2bb dcd9 b2bd b9fa 61bd
00000390: e6ca a53c 6c10 053d 3327 0b3d d446 dcbd
000003a0: 8c0e bebd 44bf 51bd 3bd6 b3bd 3c7d 483d
000003b0: 54d1 eeb9 0d61 9b3b 4dc6 c0bc 0638 323d
000003c0: 3313 923c ccfd 803d 9889 fcbc 1d11 b83d
000003d0: 3e84 933d 3755 893d 6a44 66bd 2fba f7bd
000003e0: 1095 95bd e226 c73d b57e f6bc 2441 aa3d
000003f0: 21b3 283e c11a fb3c e53c 6cbd 8149 cdbb

bias f4 [64]
-0.027276795 0.048631012 -0.026806377 -0.057265177 -0.0556677 -0.020799533 0.085451804 0.06936066
-0.016221931 0.034695238 0.005022166 0.0034927027 0.1187043 0.02451684 -0.01684787 -0.059821732
0.013543016 -0.08223281 0.039555028 0.037186947 -0.004122506 0.12593693 -0.01636245 0.015986284
-0.06744957 -0.007383062 0.040358923 0.016298255 0.0506246 -0.081055835 0.018570336 -0.0050691576
-0.0032437057 0.010728559 -0.06315431 -0.15183806 -0.08842817 0.05483678 0.05066823 -0.04770283
-0.017641421 0.024481032 -0.049184408 0.08850928 0.019194312 0.033360075 -0.052505523 0.029947517
0.022493633 0.030914769 -0.024842275 -0.10292307 0.0568489 0.010745626 0.10384454 -0.007814576
0.0026043698 0.042242512 0.036626972 0.045678362 -0.020195896 -0.014770778 0.026293326 -0.09872373
00000000: 9673 dfbc 5031 473d 0c99 dbbc e48e 6abd
00000010: d003 64bd c863 aabc 5b01 af3d f60c 8e3d
00000020: dbe3 84bc 981c 0e3d fb90 a43b d4e5 643b
00000030: 3d1b f33d 8ad7 c83c 8b04 8abc a207 75bd
00000040: 87e3 5d3c ad69 a8bd 7404 223d 5751 183d
00000050: 1616 87bb 9cf5 003e 8b0a 86bc abf5 823c
00000060: 0023 8abd 9ded f1bb 664f 253d eb83 853c
00000070: be5b 4f3d 9a00 a6bd d120 983c 2d1b a6bb
00000080: 5a94 54bb d7c6 2f3c 0c57 81bd 707b 1bbe
00000090: d419 b5bd 889c 603d 7d89 4f3d 0b64 43bd
000000a0: be84 90bc 728c c83c 9775 49bd 5a44 b53d
000000b0: 643d 9d3c 93a4 083d 0810 57bd 7f54 f53c
000000c0: 9144 b83c f840 fd3c 0782 cbbc 55c9 d2bd
000000d0: 64da 683d 6c0e 303c 72ac d43d b508 00bc
000000e0: 13ae 2a3b 7c06 2d3d 2a06 163d 3c19 3b3d
000000f0: dd71 a5bc 2201 72bc 1a65 d73c ab2f cabd

weight f4 [64]
1.3081963 1.3098241 1.4113691 1.2628297 1.3532076 1.2662467 1.4141204 1.4653577
1.3164188 1.340802 1.3102373 1.3383467 1.2568645 1.3785757 1.4235773 1.466872
1.3385248 1.3697076 1.2343651 1.2984054 1.4102628 1.3944958 1.2257606 1.4388391
1.3663571 1.3583987 1.2599411 1.4469286 1.4966936 1.3501443 1.2798086 1.3374754
1.3288208 1.2261964 1.1811423 1.5312237 1.4561876 1.4127355 1.2066485 1.2962587
1.2756008 1.3067429 1.3605003 1.395893 1.3490747 1.3550898 1.3556592 1.4068155
1.436414 1.3328466 1.3726366 1.3841006 1.2667091 1.3338729 1.3542048 1.3036383
1.3705947 1.4159718 1.2912816 1.3995059 1.3432128 1.422399 1.3993264 1.5509435
00000000: fa72 a73f 51a8 a73f bea7 b43f 67a4 a13f
00000010: e835 ad3f 5f14 a23f e601 b53f d790 bb3f
00000020: 6980 a83f 669f ab3f dbb5 a73f f24e ab3f
00000030: f0e0 a03f 2b75 b03f c837 b63f 76c2 bb3f
00000040: c854 ab3f 9452 af3f adff 9d3f 2632 a63f
00000050: 7e83 b43f d77e b23f b9e5 9c3f e12b b83f
00000060: cae4 ae3f 02e0 ad3f c045 a13f f534 b93f
00000070: a893 bf3f 87d1 ac3f c5d0 a33f 6532 ab3f
00000080: cd16 aa3f 01f4 9c3f ac2f 973f 23ff c33f
00000090: 5b64 ba3f 84d4 b43f 7573 9a3f ceeb a53f
000000a0: e346 a33f 5a43 a73f e024 ae3f 9fac b23f
000000b0: 7bae ac3f 9573 ad3f 3e86 ad3f 8812 b43f
000000c0: 6adc b73f b89a aa3f 8eb2 af3f 352a b13f
000000d0: 8623 a23f 59bc aa3f 9556 ad3f 9fdd a63f
000000e0: a66f af3f 903e b53f b748 a53f 0223 b33f
000000f0: 66ee ab3f 2c11 b63f 211d b33f 5185 c63f

bias f4 [64]
-0.065301254 0.060706157 -0.035144858 0.009104314 -0.10798847 -0.025620833 -0.065361045 0.04341149
-0.072265744 0.01818832 -0.18908961 -0.07273467 -0.004217715 -0.071223944 -0.07704421 -0.1115686
-0.10441962 -0.10752874 -0.15456219 -0.20063588 0.18087706 0.17822348 -0.27267393 -0.18208945
-0.11049899 -0.0772257 -0.00069840474 0.11137129 0.009213053 0.013132269 -0.26748097 0.029881505
-0.20093426 -0.32353935 -0.043353233 -0.101521894 -0.043909933 0.11390301 -0.20509416 -0.14430955
-0.1750413 0.26762336 -0.0019613218 -0.1451168 -0.06592856 0.026493328 0.061551858 -0.100505665
0.07681727 0.01645481 0.24115698 -0.1579092 -0.06646368 -0.22276919 0.04937495 0.10291101
0.20430534 0.028414203 -0.1161886 0.002991058 -0.2638774 -0.05122588 0.20973773 0.08552153
00000000: aabc 85bd 05a7 783d 0ef4 0fbd 432a 153c
00000010: 0f29 ddbd c8e2 d1bc 03dc 85bd 3fd0 313d
00000020: 1000 94bd acff 943c b5a0 41be eaf5 94bd
00000030: c234 8abb dcdd 91bd 5bc9 9dbd 147e e4bd
00000040: f4d9 d5bd 0738 dcbd 8d45 1ebe 7e73 4dbe
00000050: d637 393e 3780 363e eb9b 8bbe a875 3abe
00000060: 4b4d e2bd 8228 9ebd 2615 37ba a216 e43d
00000070: 58f2 163c ba28 573c 44f3 88be 0fca f43c
00000080: b6c1 4dbe f3a6 a5be 2993 31bd b6ea cfbd
00000090: e7da 33bd fb45 e93d 3404 52be e2c5 13be
000000a0: 073e 33be ee05 893e 8589 00bb 8099 14be
000000b0: 8e05 87bd 8908 d93c cd1d 7c3d ead5 cdbd
000000c0: 5f52 9d3d 3dcc 863c dbf1 763e f3b2 21be
000000d0: 1c1e 88bd 9b1d 64be 633d 4a3d 02c3 d23d
000000e0: 6b35 513e e7c4 e83c 4af4 edbd a005 443b
000000f0: f01a 87be 3ad2 51bd 7dc5 563e e925 af3d

running_mean f4 [64]
0.43779632 -0.043725617 -0.59229875 -0.31177598 -0.035156507 0.21093594 0.22619946 0.33075646
-0.35603052 -0.06015264 -0.0034929866 -0.2786093 0.74501 0.0941621 -0.6556547 -0.3569566
-0.6400875 -0.29262346 0.001341611 -0.27007663 0.42268333 0.956528 0.13394631 -0.111438304
-0.052177653 -0.11122248 -0.21020114 -0.077010125 0.45314738 -0.7040974 -0.2946384 -0.21969692
-0.13512804 0.09875256 -0.18413308 -0.89616114 -0.37095723 0.098588385 0.50900227 -0.2157373
-0.34449363 0.4104475 -0.16318469 0.8361078 -0.05600552 0.1858277 -0.24742393 -0.17480388
-0.068255834 -0.29276597 -0.058448035 -0.8042212 0.3929367 -0.2509604 0.52446884 0.5084295
0.12634055 0.35075632 0.23633957 -0.014773456 -0.116795056 -0.34072945 0.5664857 -0.6970643
00000000: d726 e03e a219 33bd e4a0 17bf 1aa1 9fbe
00000010: 4500 10bd 97ff 573e d5a0 673e e958 a93e
00000020: a249 b6be 9d62 76bd 97ea 64bb e1a5 8ebe
00000030: fab8 3e3f 0fd8 c03d fdd8 27bf 04c3 b6be
00000040: c6dc 23bf bed2 95be ffd8 af3a 7c47 8abe
00000050: f369 d83e 05df 743f 3929 093e c439 e4bd
00000060: 3cb8 55bd 9dc8 e3bd f83e 57be 7cb7 9dbd
00000070: ef02 e83e ba3f 34bf d8da 96be 3bf8 60be
00000080: 015f 0abe c83e ca3d 628d 3cbe d16a 65bf
00000090: 1bee bdbe b5e8 c93d f94d 023f 3dea 5cbe
000000a0: 7861 b0be 2d26 d23e e319 27be 290b 563f
000000b0: 0b66 65bd 9e49 3e3e b35c 7dbe caff 32be
000000c0: b7c9 8bbd 6ce5 95be 3567 6fbd 71e1 4dbf
000000d0: 002f c93e e27d 80be 9743 063f 7028 023f
000000e0: 6b5f 013e 5596 b33e 0003 723e 5e0c 72bc
000000f0: 3f32 efbd 1774 aebe 3505 113f ce72 32bf
